ModelZoo/WideDeep/WideDeep_torch/checkpoints/2025-05-12/21-09-57_AUC_0.71799_Loss_0.48480_Epoch_1.pt (torch, 151034 bytes, 34 tensors)

embedding_layer.embedding_layers.C1.weight f4 [31, 4]
-1.2264663 0.0013824471 1.5317774 -0.4652548 0.28338954 -0.25301242 0.6143788 -1.1561513
0.112679 -1.8780152 2.176387 -0.19241285 0.5331859 -0.8986438 -0.3005804 0.7567001
0.11993257 -2.1694758 0.36421096 0.42160997 1.8583288 1.9690636 -0.42689112 1.3598167
0.82990783 -0.042723913 1.6622813 -1.3141434 0.98893607 0.9419648 1.4131322 0.644181
2.7355554 -1.4744846 -1.4823428 0.0503861 1.2851287 -0.62900186 -0.9131426 1.2759266
0.83628666 0.4558253 0.39433292 -1.0758189 -0.061044652 -0.053726368 0.2725558 -0.24556735
0.71702 -1.4190395 -0.43064693 0.35160244 0.3620446 -1.2998917 -0.8034614 1.05271
-0.107312575 0.40283594 -1.4324728 -0.56123567 0.6966577 0.12414686 -0.042163078 0.53548014
0.3160145 -1.8632863 -0.099140935 0.76114184 0.6102583 -0.4352917 0.09055188 -0.1392067
-0.55852115 0.9510262 0.3256817 1.5288241 -0.17548697 0.9188958 -0.32465035 1.3988131
-1.2343215 -0.13140617 -0.5918282 -0.36032808 -1.1446446 1.1743232 0.18128943 1.3699096
0.17631604 1.235198 0.98258704 0.16228405 -0.99436945 1.1094784 0.92239565 1.7833186
0.7449265 -0.21863146 -0.11079035 0.7561298 0.703684 -1.0799667 -0.82959515 -0.79178363
0.9398876 -0.9836622 0.10991285 -1.0994514 1.0671483 1.3715081 0.25065652 -1.4499626
0.6645666 0.5495432 -0.24950872 0.3932116 1.6629941 -0.79296243 -0.87499565 1.1838593
-0.017583935 1.5605695 -1.6137147 -1.3758322
00000000: d9fc 9cbf 3a33 b53a 4811 c43f e135 eebe
00000010: 6f18 913e d88a 81be ee47 1d3f c4fc 93bf
00000020: 3fc4 e63d cd62 f0bf ed49 0b40 e007 45be
00000030: df7e 083f 850d 66bf ade5 99be 19b7 413f
00000040: 359f f53d b1d8 0ac0 dc79 ba3e 43dd d73e
00000050: b8dd ed3f 470a fc3f 7991 dabe 790e ae3f
00000060: d774 543f 45ff 2ebd a2c5 d43f da35 a8bf
00000070: ea2a 7d3f 9b24 713f 84e1 b43f 0ce9 243f
00000080: 5713 2f40 e9bb bcbf 69bd bdbf a861 4e3d
00000090: 197f a43f 4406 21bf b7c3 69bf 9051 a33f
000000a0: e216 563f ef61 e93e 01e6 c93e 6fb4 89bf
000000b0: f509 7abd 2e10 5cbd 6f8c 8b3e 0276 7bbe
000000c0: 9f8e 373f 16a3 b5bf c17d dcbe 3c05 b43e
000000d0: e95d b93e da62 a6bf a5af 4dbf 34bf 863f
000000e0: b2c6 dbbd 8340 ce3e 455b b7bf 24ad 0fbf
000000f0: 2958 323f b540 fe3d 31b3 2cbd 3a15 093f
00000100: a7cc a13e 2a80 eebf 670a cbbd 31da 423f
00000110: e339 1c3f 8ede debe 4473 b93d 338c 0ebe
00000120: 3efb 0ebf 7476 733f c0bf a63e 82b0 c33f
00000130: dbb2 33be c13c 6b3f 9238 a6be 4f0c b33f
00000140: 3ffe 9dbf 578f 06be 0e82 17bf ec7c b8be
00000150: b783 92bf 3950 963f f0a3 393e 3359 af3f
00000160: 318c 343e f81a 9e3f d38a 7b3f ca2d 263e
00000170: ff8e 7ebf 6303 8e3f 1f22 6c3f c943 e43f
00000180: 81b3 3e3f ede0 5fbe 0de6 e2bd b991 413f
00000190: a224 343f 593c 8abf 5960 54bf 55b2 4abf
000001a0: 799c 703f 49d1 7bbf fd19 e13d d3ba 8cbf
000001b0: 5198 883f 948d af3f 0d56 803e 6098 b9bf
000001c0: 0921 2a3f ddae 0c3f 377f 7fbe 0853 c93e
000001d0: fedc d43f 96ff 4abf b7ff 5fbf b488 973f
000001e0: 2f0c 90bc bec0 c73f 348e cebf 451b b0bf

embedding_layer.embedding_layers.C2.weight f4 [145, 4]
0.014318535 0.39696127 -0.9232826 -0.42967042 -0.35458907 -0.94126016 -0.87833035 0.21710636
-0.90120876 -0.24981177 -0.09519678 0.15219136 -0.4027065 0.38622397 -0.22113147 -0.9402062
-0.67477304 -1.37839 0.16146722 -0.5061245 1.6925104 -0.9353505 -0.5064625 -0.12669916
-0.5049618 -0.7454661 1.2952907 1.0745546 1.3653649 -0.09276398 0.42869985 0.5290319
1.8268329 1.0657974 -0.08459919 1.7478572 0.3631888 -0.6510231 0.2806513 0.93652487
-0.6962702 -0.9561708 -0.44895363 -0.9090922 -2.3538725 0.3754047 -2.1305325 -0.32613066
0.97642773 -0.973641 -0.3641114 1.4236063 0.72771984 -0.22321 1.9074742 0.62889373
-1.3844877 0.6242199 0.51335794 -1.0579603 0.7250271 0.37454867 -0.3977888 0.57710993
-0.35683113 0.63099635 -1.6225834 0.22704805 0.48396006 -0.6386156 0.47736818 -1.1222779
0.7903529 0.022866856 -1.0086552 0.8416875 -0.59746015 0.34961078 -0.95548224 0.08105616
-0.012698161 -1.6886353 0.26460096 0.4129764 -0.513757 1.1545017 0.7041346 -1.2183508
0.81552863 -0.99651885 0.2893541 -0.19541793 -1.1823084 0.20489608 -1.5726956 1.5812534
-0.7010493 0.89905286 0.52724415 0.69778883 1.2136283 -0.8324812 1.6797544 0.79730153
-0.4173737 -0.6820076 -1.0959057 0.33103967 -0.52093875 0.13306631 1.6495632 0.014297278
-1.6438442 -0.57727486 1.8523166 -0.6269702 1.1205064 0.4911969 -2.011056 0.08301332
0.65190774 0.43474728 0.33526888 -2.08766 1.0210372 -0.468088 1.759392 1.2011654
0.6793936 0.32077256 0.22310601 0.7567491 -0.17111614 -0.09941481 0.914812 -0.39267683
1.3215414 0.69982105 -1.3618184 -0.27341956 0.8366169 -0.20823608 -1.9395076 1.3936236
1.7761854 0.7374223 0.10541468 -2.0309167 0.5340749 0.8255819 0.27964094 1.699986
-1.5477782 1.4740883 0.03266675 1.1069835 -1.09109 0.16173019 0.34236515 -0.15197098
0.8929615 0.6148837 -0.010708045 1.1189045 -1.1578429 1.7945088 -1.5485953 -1.805553
-0.27921224 0.38441086 0.5977331 -0.10032475 -1.5935473 -0.13647042 0.1292714 -1.2612823
-0.97185826 -0.94068027 1.2580357 -0.44563645 -0.33441454 1.1267493 0.15696739 -0.4928032
-0.33002475 1.3370173 -1.0008715 -0.21990807 -0.8702941 0.6135352 -0.23186561 1.1555306
-1.6774571 1.034361 -0.17134386 0.56436974 -0.5424379 -0.19141851 0.74508846 -0.5451173
-0.9065619 1.1306121 -0.619514 -0.14568084 0.2888715 0.5065945 -1.1355742 1.2784805
-1.1697923 -1.1408788 -0.11245547 1.0188142 -0.9020016 0.3086633 1.3020215 -1.6042756
0.05044196 0.21650717 0.58824253 -0.19402565 -1.2965199 -0.3498557 -0.50904846 0.2654138
-0.9346046 1.1037648 3.0922852 0.7060446 0.7540843 -0.8799081 0.5812694 -1.2488105
-0.8324158 -0.5597697 2.4890637 -1.0079153 1.4687479 0.16953202 -0.73024476 -2.0416718
-0.2175725 0.68899673 -1.0128922 -0.06276797 -1.1052566 -0.81652576 -0.025963016 0.2963151
0.01591818 0.5798182 1.3244385 -1.5199784 1.6196752 0.27541587 0.33639655 0.17998338
00000000: 4a98 6a3c 823e cb3e 405c 6cbf c3fd dbbe
00000010: b38c b5be 6df6 70bf 42da 60bf 2151 5e3e
00000020: 9eb5 66bf a8ce 7fbe 88f6 c2bd 0dd8 1b3e
00000030: 8c2f cebe 26bf c53e 4a70 62be 5bb1 70bf
00000040: edbd 2cbf 156f b0bf aa57 253e 6091 01bf
00000050: 2ea4 d83f 2173 6fbf 87a7 01bf 6dbd 01be
00000060: 2d45 01bf ded6 3ebf 16cc a53f 018b 893f
00000070: 47c4 ae3f 0bfb bdbd 8c7e db3e a26e 073f
00000080: a9d5 e93f 0d6c 883f 5742 adbd c9b9 df3f
00000090: e2f3 b93e 73a9 26bf 87b1 8f3e 18c0 6f3f
000000a0: c43e 32bf 9cc7 74bf 40dd e5be 44ba 68bf
000000b0: d9a5 16c0 0b35 c03e a55a 08c0 99fa a6be
000000c0: 2bf7 793f 8940 79bf cf6c babe bb38 b63f
000000d0: d94b 3a3f 2a91 64be 1d28 f43f 2eff 203f
000000e0: e536 b1bf e0cc 1f3f 6d6b 033f 3e6b 87bf
000000f0: 609b 393f d8c4 bf3e f9aa cbbe 7abd 133f
00000100: 92b2 b6be fa88 213f d0b0 cfbf 497f 683e
00000110: 9dc9 f73e 507c 23bf 9a69 f43e cda6 8fbf
00000120: 9154 4a3f 4653 bb3c 9d1b 81bf d578 573f
00000130: 26f3 18bf 2f00 b33e 7c9a 74bf c600 a63d
00000140: f30b 50bc 3425 d8bf c779 873e a571 d33e
00000150: 9485 03bf b6c6 933f 2a42 343f ebf2 9bbf
00000160: 7cc6 503f dc1b 7fbf 3826 943e a31b 48be
00000170: e255 97bf 47d0 513e 174e c9bf 8366 ca3f
00000180: f877 33bf 5428 663f 79f9 063f 4aa2 323f
00000190: 2c58 9b3f 7d1d 55bf 3102 d73f f41b 4c3f
000001a0: 01b2 d5be 0d98 2ebf a346 8cbf 087e a93e
000001b0: 3e5c 05bf 8942 083e e324 d33f 213f 6a3c
000001c0: 7d69 d2bf 49c8 13bf b618 ed3f 1e81 20bf
000001d0: c16c 8f3f 297e fb3e 24b5 00c0 e302 aa3d
000001e0: 6de3 263f 3297 de3e 5da8 ab3e 399c 05c0
000001f0: 59b1 823f 3ba9 efbe c233 e13f cabf 993f
00000200: bdec 2d3f 4d3c a43e e775 643e 4fba 413f
00000210: 1239 2fbe fe99 cbbd 1f31 6a3f f00c c9be
00000220: 4528 a93f 7927 333f 1150 aebf a6fd 8bbe
00000230: 862c 563f d73b 55be c941 f8bf 4262 b23f
00000240: 0b5a e33f b5c7 3c3f a7e3 d73d 8afa 01c0
00000250: 22b9 083f 5659 533f 192d 8f3e 2499 d93f
00000260: 991d c6bf edae bc3f 92cd 053d a3b1 8d3f
00000270: d6a8 8bbf 999c 253e 7c4a af3e 489e 1bbe
00000280: 2099 643f 0569 1d3f cc70 2fbc 4338 8f3f
00000290: 3234 94bf 77b2 e53f 5f38 c6bf 5c1c e7bf
000002a0: e8f4 8ebe 80d1 c43e 0905 193f 1077 cdbd
000002b0: 5cf9 cbbf e7be 0bbe b95f 043e b371 a1bf
000002c0: b4cb 78bf 6cd0 70bf 5007 a13f 762a e4be
000002d0: 6238 abbe 5239 903f 0fbc 203e b350 fcbe
000002e0: 01f9 a8be 6223 ab3f 8f1c 80bf 952f 61be
000002f0: 98cb 5ebf a510 1d3f 2e6e 6dbe 6de8 933f
00000300: eab6 d6bf f165 843f c474 2fbe 897a 103f
00000310: 36dd 0abf 3703 44be 1ebe 3e3f cf8c 0bbf
00000320: 7114 68bf e6b7 903f 7898 1ebf 5c2d 15be
00000330: f7e6 933e 2db0 013f 7f5a 91bf 40a5 a33f
00000340: c1bb 95bf 5108 92bf 0e4f e6bd 8168 823f
00000350: 94e9 66bf 1e09 9e3e a4a8 a63f e758 cdbf
00000360: 3b9c 4e3d 0eb4 5d3e 1097 163f a9ae 46be
00000370: 5df4 a5bf 4920 b3be 0051 02bf 51e4 873e
00000380: 3f42 6fbf 2a48 8d3f 00e8 4540 57bf 343f
00000390: ab0b 413f a841 61bf 12ce 143f 06d9 9fbf
000003a0: 3419 55bf 114d 0fbf d24c 1f40 5e03 81bf
000003b0: eeff bb3f cd99 2d3e 52f1 3abf c0aa 02c0
000003c0: 53cb 5ebe 1762 303f 74a6 81bf 7e8c 80bd
000003d0: 0c79 8dbf d507 51bf 64b0 d4bc 9db6 973e
000003e0: d866 823c f76e 143f 3387 a93f a78e c2bf
000003f0: 8451 cf3f 4f03 8d3e 2b3c ac3e 904d 383e

embedding_layer.embedding_layers.C3.weight f4 [59, 4]
0.09644474 -1.4900117 1.0533092 1.2957513 -0.43713537 -2.4328756 0.6552186 -0.6906128
1.6847421 0.19761091 0.6292945 -0.51719284 1.0374776 -0.7662768 -0.7774788 -0.00519324
0.050023515 0.19176254 1.1779902 0.50803787 0.103826694 -0.1046625 0.8944801 0.27734044
0.151412 -0.83573246 0.7877538 1.6352066 0.67926043 0.8075793 -0.46334454 0.2535279
-1.5770812 1.3220538 1.5632046 -1.2616814 -0.34886608 -1.3127631 0.7227999 0.43717453
-1.6480423 0.37679946 0.3628859 -0.18944742 -0.75274396 0.52372503 0.19293498 1.7702954
-0.034144927 1.0973297 -0.10031894 0.64776784 -0.3178023 -0.33862877 0.77936846 1.2258753
-0.43320987 -1.4245847 0.15239671 -0.8484366 1.1240627 -2.4117112 -0.017165655 0.45784995
0.0515214 -1.8780744 0.8703496 -2.2365127 0.12627275 -1.6736338 -1.0764457 0.35623989
-0.68771464 -2.032417 -1.8626863 0.016611954 1.2327958 -0.9755887 -1.3618798 0.73048496
0.49796522 -0.78533643 -1.8393626 0.89096373 0.96477735 0.9253833 -0.33793035 1.0263104
0.3291146 -0.82570004 1.3354868 -0.43846083 2.004089 1.7050636 0.8537667 0.35840702
-0.17825675 0.2425167 -0.59290713 -0.8986474 0.38963267 0.79318184 -0.54850805 -0.22290978
-1.6983527 1.0845326 -0.016240254 0.42232302 1.2616893 -0.26212478 0.016858343 -1.5748047
-3.4028993 -0.9705924 -0.22243507 1.3817402 0.27151045 -0.9825587 0.54208094 0.8681914
-1.0101389 -0.4089373 -0.29324546 -2.18449 0.5238772 -1.4875584 -1.5364541 0.86214024
1.9805385 0.25244698 -0.5901998 0.40782723 -1.0589561 -0.6784269 -1.3972379 0.061268844
-0.42856964 -1.6138641 -0.01462698 -0.11495745 -1.505061 0.6319097 2.495496 0.7940594
-1.8013891 -1.8315631 -0.073177315 0.014848178 -0.27987877 -0.4679046 -2.4016838 1.8574411
0.47897762 -0.17445081 1.636797 -1.2272592 -0.011369008 -0.8019874 -1.8310914 0.75069606
0.44905308 1.5773246 -0.38941795 0.3587044 -1.2006811 0.16824517 -1.2860811 1.2451389
-1.521066 -0.59307694 0.126318 -0.99963635 0.62405443 1.2177559 0.1615962 0.5699271
0.47541574 -0.38494927 0.100557536 -2.0239825 -1.277035 0.50419176 0.4262672 0.24841103
-0.5627601 -1.3648853 1.201468 -0.14352064 1.982544 -0.36022282 0.44333857 -0.71249366
0.8589045 -2.383227 0.88835406 -0.7290692 -0.47372052 -0.28479007 0.25325537 -0.25340605
0.52470964 -1.3504822 1.1395383 0.41995984 0.64117974 -0.4110549 -0.16914141 -1.5702841
-1.0713667 0.8674141 -1.1020155 0.8314092 -0.04856428 0.6046605 1.0464935 -2.679044
0.0012705614 0.20562598 0.31200027 -0.49539447 1.7299894 1.4336004 -0.49476466 0.4915236
-0.5356545 -0.581434 -0.84345007 -1.5522567 -0.4163722 0.22347069 -0.083037354 -0.7919647
-0.19306472 -0.29534495 -1.2364174 2.36061
00000000: d284 c53d b4b8 bebf d6d2 863f 2edb a53f
00000010: 35d0 dfbe 3cb4 1bc0 68bc 273f 00cc 30bf
00000020: a1a5 d73f 845a 4a3e 7219 213f c066 04bf
00000030: 11cc 843f b72a 44bf da08 47bf 0e2c aabb
00000040: 75e5 4c3d 665d 443e 62c8 963f c50e 023f
00000050: 17a3 d43d 4b59 d6bd a6fc 643f 91ff 8d3e
00000060: bf0b 1b3e 90f2 55bf 3caa 493f 734e d13f
00000070: 03e4 2d3f 84bd 4e3f 7f3b edbe 69ce 813e
00000080: ccdd c9bf 0f39 a93f 1717 c83f c77e a1bf
00000090: 939e b2be 9f08 a8bf 6a09 393f 57d5 df3e
000000a0: 0df3 d2bf dceb c03e 2ecc b93e 81fe 41be
000000b0: d4b3 40bf d812 063f bf90 453e 0a99 e23f
000000c0: 8ddb 0bbd 4d75 8c3f 0474 cdbd 1dd4 253f
000000d0: fcb6 a2be c060 adbe b184 473f 7be9 9c3f
000000e0: afcd ddbe cb58 b6bf e20d 1c3e 2433 59bf
000000f0: 49e1 8f3f 7a59 1ac0 fd9e 8cbc 4f6b ea3e
00000100: 1b08 533d be64 f0bf 3bcf 5e3f 0623 0fc0
00000110: a54d 013e a239 d6bf f9c8 89bf 1365 b63e
00000120: 110e 30bf 1f13 02c0 816c eebf cb15 883c
00000130: 41cc 9d3f 2ec0 79bf 1452 aebf 1001 3b3f
00000140: 4cf5 fe3e cf0b 49bf 3c70 ebbf 3316 643f
00000150: a6fb 763f ece5 6c3f 3505 adbe 245e 833f
00000160: b581 a83e 1461 53bf 3bf1 aa3f f07d e0be
00000170: ff42 0040 863f da3f 7490 5a3f 2081 b73e
00000180: f088 36be 4c56 783e c3c8 17bf c20d 66bf
00000190: ef7d c73e f70d 4b3f 066b 0cbf 7642 64be
000001a0: 9f63 d9bf f7d1 8a3f 480a 85bc b93a d83e
000001b0: 097f a13f 3835 86be 821a 8a3c 3393 c9bf
000001c0: 1ac9 59c0 be78 78bf 05c6 63be dddc b03f
000001d0: 6b03 8b3e f888 7bbf d1c5 0a3f cb41 5e3f
000001e0: 3b4c 81bf 3b60 d1be 4524 96be afce 0bc0
000001f0: d11c 063f 5068 bebf 87aa c4bf 39b5 5c3f
00000200: 4982 fd3f bb40 813e 5617 17bf bbce d03e
00000210: e08b 87bf 63ad 2dbf b1d8 b2bf 0af5 7a3d
00000220: 7b6d dbbe 1993 cebf 00a6 6fbc d06e ebbd
00000230: d7a5 c0bf d6c4 213f 35b6 1f40 7a47 4b3f
00000240: eb93 e6bf a970 eabf fddd 95bd c645 733c
00000250: 454c 8fbe 3191 efbe 30b5 19c0 a1c0 ed3f
00000260: 8e3c f53e 3ca3 32be 9082 d13f d416 9dbf
00000270: 1345 3abc 0c4f 4dbf 3461 eabf 9e2d 403f
00000280: 49ea e53e c6e5 c93f ca61 c7be 1aa8 b73e
00000290: ebaf 99bf 7648 2c3e 4e9e a4bf b660 9f3f
000002a0: 4ab2 c2bf e4d3 17bf 8159 013e 2be8 7fbf
000002b0: 08c2 1f3f 6ddf 9b3f 7979 253e bee6 113f
000002c0: b169 f33e 1218 c5be 1cf1 cd3d ee88 01c0
000002d0: e275 a3bf b612 013f b23f da3e 765f 7e3e
000002e0: 0c11 10bf 90b4 aebf b4c9 993f 13f7 12be
000002f0: 00c4 fd3f 206f b8be 46fd e23e fc65 36bf
00000300: 2ae1 5b3f cb86 18c0 2c6b 633f 47a4 3abf
00000310: 7f8b f2be 01d0 91be b0aa 813e 70be 81be
00000320: 5f53 063f 9adc acbf 64dc 913f fa04 d73e
00000330: 5b24 243f ca75 d2be 6833 2dbe 12ff c8bf
00000340: 8b22 89bf da0e 5e3f d80e 8dbf 3cd7 543f
00000350: 57eb 46bd 08cb 1a3f 80f3 853f 7575 2bc0
00000360: f788 a63a 9e8f 523e 80be 9f3e 58a4 fdbe
00000370: 4b70 dd3f 3880 b73f cb51 fdbe fba8 fb3e
00000380: a720 09bf dcd8 14bf 58ec 57bf 59b0 c6bf
00000390: bd2e d5be 80d5 643e 7d0f aabd 33be 4abf
000003a0: c2b2 45be 7437 97be ed42 9ebf 3c14 1740

embedding_layer.embedding_layers.C4.weight f4 [91, 4]
-1.0605088 -0.40687856 0.12975559 0.6731057 -0.17413473 0.32765055 1.3306253 0.9214673
-1.828576 -1.1725062 -0.9907814 1.5897765 0.932223 1.403538 1.082025 0.2312086
-0.1804593 -0.91728187 -0.28195587 -1.4474986 0.7394844 -1.4302155 -0.11325937 -0.14278387
-0.06378064 -0.0013041049 0.43379515 0.9699568 0.3116341 -0.32707542 0.6945096 -1.2531807
-0.29801998 0.03986961 -1.5928496 -1.2841079 1.23881 0.73565656 -0.92591417 -0.8319869
-0.1764073 0.13371441 0.06902508 0.38444793 1.5034393 -0.88351125 0.80144715 0.6405014
0.59409666 0.74195135 1.1694238 1.7458887 0.45245054 -0.40487996 -0.63903373 -0.08696637
-0.10023964 1.0889394 -1.276103 -0.5788741 1.487907 0.16148527 0.30867335 -2.5305417
-0.92524374 0.83775216 0.0021331373 0.827841 2.4495418 0.44328582 -0.50667775 -1.1198548
0.14078642 0.74142945 -0.19799969 1.5081152 -0.34298167 -0.4131565 0.35775986 1.8732932
0.52459294 -1.6252636 0.46359164 -0.34020734 -0.051002808 1.1143837 -1.8870858 -0.012548423
0.14005855 1.145532 -0.32571694 0.33859923 0.3187636 -0.55064285 -0.5942379 0.15057744
-0.6048286 -0.49887258 1.441196 0.439843 0.016583912 0.29117075 -1.3361791 0.5625492
-0.3391265 -0.23015112 -0.38617077 0.8724784 0.88397765 -0.6781205 1.1195979 0.5858949
1.307964 -0.42687246 -0.6421207 0.27206883 -0.7404897 0.7853125 0.7659175 0.1784989
-0.20056853 0.9691881 0.3948578 0.49704188 0.78168464 -1.2392601 0.39907143 -1.6876507
-1.1485482 -0.5160867 -0.2987847 0.77727 -0.61845946 -0.15073684 0.25135314 -0.20520267
-0.55902344 1.1079731 0.7077542 -0.69907236 -0.96880746 -1.9578632 -0.81778115 -0.82720125
0.7447087 0.85781753 0.95142 -0.11589567 0.61844546 1.2513093 -0.46155843 0.5910612
0.17558852 0.43454745 0.14015786 0.53005993 -0.53716916 -1.1357633 1.0406578 -0.36937895
-0.8239761 -0.2054379 0.04983755 -0.79150736 -0.43489933 -1.230529 -0.6165823 0.25046688
1.0758806 -0.1027415 -0.6261822 0.621952 0.57322615 0.13091014 -0.81334096 -1.4226131
0.41406646 -0.3121957 -1.4150317 -2.00444 -0.343989 0.6906824 0.84807295 0.89461887
0.6442187 -1.2187817 -0.004463451 2.735241 -0.3119002 0.64202124 -0.21056786 -2.48858
-1.1464332 -1.1698847 -2.421526 1.1121379 -0.93038374 1.3142892 -1.0286666 -0.65090585
-1.0793698 -1.8816296 -1.7496415 -0.4678937 -0.5000367 -0.62770903 0.9442115 0.7938646
-0.5650724 -1.4835491 -0.523122 -0.9944593 -0.9278282 0.24327734 0.6161864 0.23926236
0.23743582 0.008484011 0.23174676 -0.5645953 0.99202615 -1.2396035 0.06314837 -0.45227578
-1.3763132 1.564619 0.91009325 0.9733844 0.35230434 -0.24104759 -0.070474364 0.4849206
-2.1156983 0.6275101 0.44380492 -0.18223222 -0.45529845 -0.34700987 -0.88954467 1.8022295
1.6293702 -0.46619514 1.1050026 -0.046286676 1.0023009 -0.9444569 0.23267618 -0.47743717
-0.42213285 1.609844 -0.41980186 -1.241267 1.3410814 0.7307637 0.42834324 0.16489638
00000000: c1be 87bf 6352 d0be a6de 043e a850 2c3f
00000010: 6050 32be d0c1 a73e ee51 aa3f 48e5 6b3f
00000020: c70e eabf af14 96bf daa3 7dbf cc7d cb3f
00000030: 2ba6 6e3f 22a7 b33f cc7f 8a3f f2c1 6c3e
00000040: 53ca 38be fcd2 6abf 855c 90be a247 b9bf
00000050: da4e 3d3f 4d11 b7bf 87f4 e7bd ef35 12be
00000060: 6d9f 82bd 80ee aaba 661a de3e 174f 783f
00000070: 818e 9f3e 6e76 a7be 62cb 313f 3a68 a0bf
00000080: 1396 98be 514e 233d 7fe2 cbbf a65d a4bf
00000090: 5391 9e3f fd53 3c3f b608 6dbf 18fd 54bf
000000a0: 1ea4 34be 6eec 083e 055d 8d3d 5cd6 c43e
000000b0: b370 c03f cb2d 62bf a42b 4d3f e6f7 233f
000000c0: b816 183f 86f0 3d3f aeaf 953f 4879 df3f
000000d0: 99a7 e73e 6d4c cfbe b797 23bf 6d1b b2bd
000000e0: 714a cdbd 5e62 8b3f 5857 a3bf 1831 14bf
000000f0: bd73 be3f 655c 253e 6f0a 9e3e 65f4 21c0
00000100: c6dc 6cbf ed76 563f 1bcc 0b3b 63ed 533f
00000110: 4bc5 1c40 5cf6 e23e a2b5 01bf 6757 8fbf
00000120: 512a 103e 52ce 3d3f 6ec0 4abe eb09 c13f
00000130: 4b9b afbe 4089 d3be 4d2c b73e 12c8 ef3f
00000140: b94b 063f a308 d0bf e25b ed3e a82f aebe
00000150: 52e8 50bd 20a4 8e3f 078c f1bf e797 4dbc
00000160: 826b 0f3e cba0 923f 5fc4 a6be e15c ad3e
00000170: fc34 a33e eef6 0cbf fa1f 18bf f930 1a3e
00000180: 0cd6 1abf 3a6c ffbe 1c79 b83f 1a33 e13e
00000190: fcda 873c 5514 953e eb07 abbf 3903 103f
000001a0: fda1 adbe bcac 6bbe 2db8 c5be bf5a 5f3f
000001b0: 5c4c 623f 4e99 2dbf fc4e 8f3f 35fd 153f
000001c0: 5d6b a73f 078f dabe 0662 24bf 9b4c 8b3e
000001d0: bc90 3dbf 3d0a 493f 2b13 443f 6ac8 363e
000001e0: d661 4dbe b61c 783f cd2a ca3e 467c fe3e
000001f0: 7c1c 483f 13a0 9ebf 1753 cc3e f004 d8bf
00000200: a103 93bf 421e 04bf 4ffa 98be 2bfb 463f
00000210: 5c53 1ebf c25a 1abe 5cb1 803e a620 52be
00000220: 291c 0fbf 10d2 8d3f 612f 353f 68f6 32bf
00000230: c403 78bf 439b fabf 1b5a 51bf 76c3 53bf
00000240: 3ba5 3e3f ee99 5b3f 4390 733f b65a edbd
00000250: 7152 1e3f e72a a03f 6351 ecbe c94f 173f
00000260: 7acd 333e 017d de3e 8b85 0f3e 02b2 073f
00000270: eb83 09bf b160 91bf 4634 853f 3d1f bdbe
00000280: 19f0 52bf 505e 52be 7522 4c3d 3aa0 4abf
00000290: 20ab debe f981 9dbf 56d8 1dbf 323d 803e
000002a0: 75b6 893f 236a d2bd 7a4d 20bf 3f38 1f3f
000002b0: f3be 123f 4f0d 063e 1d37 50bf 3018 b6bf
000002c0: 8500 d43e 1dd8 9fbe c21f b5bf bf48 00c0
000002d0: 541f b0be 90d0 303f 4f1b 593f be05 653f
000002e0: 84eb 243f 0a01 9cbf 2442 92bb 300e 2f40
000002f0: 62b1 9fbe 815b 243f 1a9f 57be e544 1fc0
00000300: 53be 92bf c8be 95bf 48fa 1ac0 895a 8e3f
00000310: a12d 6ebf a13a a83f 59ab 83bf c4a1 26bf
00000320: ca28 8abf 3dd9 f0bf 41f4 dfbf c38f efbe
00000330: 6802 00bf 8ab1 20bf d8b7 713f b63a 4b3f
00000340: 96a8 10bf f0e4 bdbf 53eb 05bf e294 7ebf
00000350: 2686 6dbf b21d 793e 64be 1d3f 3101 753e
00000360: 6022 733e 8500 0b3c 064f 6d3e 5189 10bf
00000370: 6df5 7d3f 54ab 9ebf ef53 813d b190 e7be
00000380: 082b b0bf 6f45 c83f dffb 683f b82f 793f
00000390: 3c61 b43e 2ed5 76be dd54 90bd 8347 f83e
000003a0: 9a67 07c0 80a4 203f 663a e33e 159b 3abe
000003b0: e11c e9be 47ab b1be 33b9 63bf 75af e63f
000003c0: 348f d03f 21b1 eebe ba70 8d3f 1997 3dbd
000003d0: 654b 803f edc7 71bf aa42 6e3e a572 f4be
000003e0: cc21 d8be 5e0f ce3f 45f0 d6be d6e1 9ebf
000003f0: 8ea8 ab3f 5413 3b3f ce4f db3e 99da 283e

embedding_layer.embedding_layers.C5.weight f4 [17, 4]
-0.7857592 0.7536194 -0.02610042 1.3760074 0.90595675 -0.32865354 -0.67523736 0.73038924
-0.2756415 0.14684908 1.9720558 0.73615146 -0.00036119352 -0.19558051 -1.3070686 -1.0184109
-0.29415417 -0.96774954 2.1298583 1.9081713 -0.42091238 -0.5192645 -0.82880014 1.5670948
-0.9426235 0.43322608 0.3056864 1.2788279 1.1629962 0.8310738 1.0761544 -0.43384564
1.6382871 -1.2098168 0.4173443 0.1589087 0.06926147 -0.31613594 1.0866084 -0.9324623
0.030014345 1.6313431 1.0103402 -0.28165334 0.6725385 -0.30831861 0.7681808 0.46322542
-0.071676575 -0.36189228 -0.08620863 0.10300194 2.2376845 -0.5887443 -0.25180444 -2.6513414
-1.1935831 -0.86128694 0.90833384 -0.8556022 -0.4949 0.036326937 0.17243375 -1.3272954
-0.8585639 1.605309 -0.91738945 -0.31099713
00000000: 8427 49bf 33ed 403f 8cd0 d5bc 0321 b03f
00000010: c8ec 673f 4745 a8be 5bdc 2cbf cafa 3a3f
00000020: e220 8dbe 9b5f 163e 536c fc3f 6c74 3c3f
00000030: 935e bdb9 4246 48be 064e a7bf 4a5b 82bf
00000040: 609b 96be 6fbe 77bf 994f 0840 f53e f43f
00000050: d481 d7be 85ee 04bf 3f2c 54bf 9096 c83f
00000060: c64f 71bf cfcf dd3e ee82 9c3e a2b0 a33f
00000070: 0fdd 943f 41c1 543f 6dbf 893f 0421 debe
00000080: 64b3 d13f 47db 9abf 27ae d53e f6b8 223e
00000090: f5d8 8d3d 92dc a1be fc15 8b3f d9b5 6ebf
000000a0: a5e0 f53c dacf d03f d452 813f de34 90be
000000b0: 7c2b 2c3f f0db 9dbe 7fa7 443f e22b ed3e
000000c0: 2bcb 92bd f249 b9be 268e b0bd aef2 d23d
000000d0: 3936 0f40 f2b7 16bf 83ec 80be 94af 29c0
000000e0: 55c7 98bf 4d7d 5cbf 9188 683f bf08 5bbf
000000f0: 8863 fdbe 8ecb 143d 7992 303e d1e4 a9bf
00000100: d8ca 5bbf c47a cd3f 09da 6abf 043b 9fbe

embedding_layer.embedding_layers.C6.weight f4 [7, 4]
0.36989647 0.3541092 -0.38986996 1.2629559 0.32696304 -0.55366325 0.47822034 0.94317204
-0.027272621 -0.67253506 -0.32145104 -0.27479094 -0.38858885 -0.27466467 0.7273061 1.2906518
0.469584 0.82158756 0.07051282 1.2139553 0.5212801 0.9798837 0.29108956 -0.9980628
1.3591945 0.33848736 0.48245034 -0.12147872
00000000: 1263 bd3e cd4d b53e 099d c7be 8aa8 a13f
00000010: b367 a73e e0bc 0dbf 4cd9 f43e b973 713f
00000020: d56a dfbc 422b 2cbf 3b95 a4be 66b1 8cbe
00000030: 1ef5 c6be d9a0 8cbe bc30 3a3f 1434 a53f
00000040: 506d f03e 9053 523f 0669 903d e362 9b3f
00000050: 9d72 053f a8d9 7a3f b109 953e 0b81 7fbf
00000060: 16fa ad3f 374e ad3e bb03 f73e d6c9 f8bd

embedding_layer.embedding_layers.C7.weight f4 [173, 4]
0.6143984 -1.4972461 1.4909503 -2.825291 0.92312574 -0.49470463 -1.0463187 0.6526379
0.99960446 1.2605336 0.095777616 0.1813222 -0.23621127 -0.8863264 -0.9386096 0.52758193
0.42369893 -0.20881087 -0.9334519 1.0452088 -0.034847982 -0.73272467 -1.1132146 -1.7187539
0.30958045 0.3032457 0.27802515 0.71272993 -0.29971364 -1.44469 0.16094817 0.18335348
-2.50482 -0.43796226 -0.040560454 -0.31114653 0.028861629 1.876892 0.99784535 0.32570094
0.6863607 -1.2743796 0.20054592 0.4108983 -0.07902346 -1.5778652 0.31633458 -1.3133959
1.17864 -1.0688535 1.5006747 1.5356644 -1.4606706 -1.1117795 -1.2836928 -0.62144107
-0.2965919 -1.3785892 0.45491356 0.32939067 -0.10872327 -0.6484414 0.6051829 -0.44045207
-0.23128453 0.39945364 0.9692578 -0.3407455 2.2119339 0.39561468 0.98378325 -0.028464254
-0.75764376 0.58993274 -1.5247837 0.16516325 0.75155497 1.68733 -0.00018373164 0.41140082
0.8240364 -0.44115224 0.688601 -0.11379584 -0.18152806 -1.1440315 -2.190794 -0.33906004
0.0890467 -1.0947407 -0.20136142 -0.24975608 -0.98998386 0.66077685 1.2085941 -0.33623508
-1.2723554 -0.9156933 0.4071121 -0.35903928 0.105799034 1.5005862 0.57402813 0.47727063
0.6486339 -0.53915125 -1.2389941 0.2892635 0.5732961 1.1901721 -0.63079274 0.20038716
-0.58037645 0.46357217 0.586842 0.3620542 1.5724877 -0.8549848 -0.62294626 -0.1212513
-1.0486329 -1.0250293 0.07347966 0.536319 0.15206106 -0.6805697 -0.08504515 -0.90438396
-0.5272071 -0.2086097 -1.4511032 -1.0517302 0.9810251 -0.53372175 1.2943313 0.3278605
0.77140987 1.3944708 0.6104862 -0.24200408 -0.8609177 0.6439066 -0.28264678 1.0776811
1.1045537 -2.2342405 0.37707078 0.85004187 -0.3298325 -0.8324145 -0.65414226 -1.3827852
-1.6781063 0.2936782 -1.2301797 -0.11510842 0.5320226 1.5893675 -0.9182888 -1.1251205
0.38160127 -0.43322128 1.278035 1.7830409 -1.0958582 1.0069755 1.7522252 -0.6400737
-1.2321519 0.27957293 0.6417997 -1.5500325 -0.08715868 0.1577852 -1.3667159 -2.890718
0.5999252 -0.47335613 1.487799 0.41157138 -1.0769336 -0.014108247 1.1202623 -0.5648501
0.4347256 -0.51770324 2.1747394 0.4350027 0.7726124 -1.3015851 -0.55047244 -0.7607875
0.73126286 -0.3512694 -0.71414447 0.12631725 -1.366982 0.21103594 -1.4912449 0.23217845
-1.8651686 1.8742399 0.552165 -1.748255 -0.25845882 0.3013911 0.9327786 0.5614625
0.45622003 -2.1023798 -0.5329258 0.22825329 -2.5417411 -0.3261703 -0.6796244 1.5995594
-2.3355396 -1.2676051 0.25879455 -0.16358954 0.38230532 -0.18707557 0.16929042 0.68178797
1.3444275 0.21492103 0.34099877 0.07218119 0.49013537 0.5677276 -0.7866016 -0.17102349
0.44806087 0.6354696 0.11874207 2.1508005 -1.9831815 -0.42629686 -1.0261647 0.43855715
0.5517838 1.3389753 -0.520637 -0.2716287 -0.21527568 1.3777595 -0.6654576 0.45663494
-0.9880034 -1.181281 -1.0681479 0.35166037 -0.31631204 -0.04790665 0.7129948 -0.29456517
00000000: 3749 1d3f c3a5 bfbf 76d7 be3f 91d1 34c0
00000010: f851 6c3f ed49 fdbe c5ed 85bf 4713 273f
00000020: 14e6 7f3f 2a59 a13f 0e27 c43d 87ac 393e
00000030: 5ee1 71be 49e6 62bf b848 70bf 9c0f 073f
00000040: 11ef d83e 84d2 55be b4f6 6ebf 67c9 853f
00000050: c2bc 0ebd d893 3bbf d17d 8ebf 2100 dcbf
00000060: 5481 9e3e 0543 9b3e 5059 8e3e 7875 363f
00000070: 1174 99be 9aeb b8bf 99cf 243e 04c1 3b3e
00000080: f94e 20c0 973c e0be b822 26bd 994e 9fbe
00000090: 396f ec3c ff3d f03f cb72 7f3f 46c2 a63e
000000a0: 56b5 2f3f df1e a3bf e95b 4d3e 4361 d23e
000000b0: 0dd7 a1bd 7df7 c9bf 9bf6 a13e 5b1d a8bf
000000c0: addd 963f 31d0 88bf 1c16 c03f a790 c43f
000000d0: 41f7 babf ca4e 8ebf 0c50 a4bf c316 1fbf
000000e0: e5da 97be 9c75 b0bf 6eea e83e e5a5 a83e
000000f0: 4eaa debd 4100 26bf 44ed 1a3f ef82 e1be
00000100: dad5 6cbe 3085 cc3e 4721 783f 3276 aebe
00000110: 5390 0d40 028e ca3e 38d9 7b3f de2d e9bc
00000120: f1f4 41bf d505 173f 1d2c c3bf 8e20 293e
00000130: e865 403f 6efa d73f 16a8 40b9 21a3 d23e
00000140: 0df4 523f b5de e1be 2848 303f cb0d e9bd
00000150: 7ee2 39be a06f 92bf f835 0cc0 4799 adbe
00000160: 1e5e b63d 7720 8cbf b031 4ebe 0fc0 7fbe
00000170: 956f 7dbf ac28 293f 36b3 9a3f 0127 acbe
00000180: 8bdc a2bf e06a 6abf ff70 d03e ffd3 b7be
00000190: 2aad d83d 3513 c03f 82f3 123f d15c f43e
000001a0: df0c 263f d105 0abf 5c97 9ebf 581a 943e
000001b0: 89c3 123f 8f57 983f a27b 21bf 4b32 4d3e
000001c0: 8d93 14bf 5559 ed3e 473b 163f 2b5f b93e
000001d0: 4747 c93f 49e0 5abf 6879 1fbf 9a52 f8bd
000001e0: 9a39 86bf 2934 83bf 817c 963d 344c 093f
000001f0: e5b5 1b3e d139 2ebf 272c aebd b585 67bf
00000200: 0bf7 06bf c89d 55be c0bd b9bf 189f 86bf
00000210: 7624 7b3f fda1 08bf a6ac a53f 55dd a73e
00000220: 1e7b 453f 057e b23f d348 1c3f ebcf 77be
00000230: 1a65 5cbf 10d7 243f 14b7 90be 74f1 893f
00000240: 0462 8d3f ccfd 0ec0 6c0f c13e 589c 593f
00000250: cedf a8be 1e19 55bf de75 27bf 1bff b0bf
00000260: 30cc d6bf fd5c 963e 8776 9dbf f7bd ebbd
00000270: a232 083f 6570 cb3f fa14 6bbf f303 90bf
00000280: 3e61 c33e 2ecf ddbe a796 a33f af3a e43f
00000290: 1545 8cbf 93e4 803f ea48 e03f dfdb 23bf
000002a0: 27b7 9dbf 2f24 8f3e fc4c 243f 7767 c6bf
000002b0: 4080 b2bd 7292 213e 8cf0 aebf 8601 39c0
000002c0: b394 193f bc5b f2be 3370 be3f 7cb9 d23e
000002d0: f6d8 89bf 4726 67bc c164 8f3f 049a 10bf
000002e0: 5b94 de3e 3388 04bf ee2e 0b40 adb8 de3e
000002f0: edc9 453f 579a a6bf c3eb 0cbf f8c2 42bf
00000300: 0b34 3b3f 95d9 b3be 2cd2 36bf 4f59 013e
00000310: 44f9 aebf ce19 583e 1de1 bebf 30c0 6d3e
00000320: d8bd eebf 18e7 ef3f af5a 0d3f d2c6 dfbf
00000330: b754 84be ef4f 9a3e 94ca 6e3f 02bc 0f3f
00000340: ac95 e93e 648d 06c0 d36d 08bf 3bbb 693e
00000350: e3ab 22c0 cbff a6be ddfb 2dbf 5dbe cc3f
00000360: 7b79 15c0 e240 a2bf b880 843e 0484 27be
00000370: 86bd c33e bd90 3fbe 785a 2d3e a889 2e3f
00000380: 3316 ac3f 4214 5c3e 6497 ae3e bbd3 933d
00000390: 06f3 fa3e 9956 113f b95e 49bf c820 2fbe
000003a0: 3c68 e53e 23ae 223f 0b2f f33d b7a6 0940
000003b0: e4d8 fdbf 9543 dabe 5d59 83bf 908a e03e
000003c0: b441 0d3f 8b63 ab3f 7748 05bf eb12 8bbe
000003d0: 3a71 5cbe 6c5a b03f 6e5b 2abf 0ecc e93e
000003e0: caed 7cbf 3734 97bf 12b9 88bf d40c b43e
000003f0: a7f3 a1be c339 44bd d486 363f 3fd1 96be

embedding_layer.embedding_layers.C8.weight f4 [24, 4]
-0.2942812 0.45309964 -0.49763793 1.0013531 0.45642996 -1.2462903 -0.16154104 -0.56628996
0.5155362 -1.4778702 0.8227805 -1.0140502 1.0788822 -0.002932019 -0.41151693 -1.2482033
-0.9198578 0.09849 -0.008161891 0.78134525 -0.77148485 -0.16650724 1.000605 -0.42193073
2.0669098 -1.142657 1.3958936 -0.27028173 -0.94036543 -0.17433144 -0.8795231 0.06462894
0.5790725 0.42270234 0.16675815 0.83260924 -0.86347586 0.55794615 -1.7498608 -0.44113028
1.8074948 1.5927573 0.13630436 -0.45059922 0.506992 -0.36696747 0.85404056 -0.9512473
2.4090953 -0.97142315 0.48785323 0.31737718 -1.7006694 2.416396 0.62804455 -0.34834862
1.4615623 -0.2656794 1.1305557 -0.24281879 -1.2721874 1.6806564 0.33402145 -0.5166876
-0.2885277 -0.8363418 -0.43800846 1.0907713 -1.1792556 -0.7715881 -0.44276083 0.12344558
-0.26145336 -2.5417054 -0.7068796 0.0094319945 0.7472376 1.0233638 0.33398318 -2.3371372
-0.22058572 0.936183 0.15136339 0.19933812 -1.3944653 0.5493228 0.8970567 0.39773226
-1.1981554 -0.59981924 0.4260154 -0.79311305 1.4521923 0.55953366 0.14789943 -0.57377726
00000000: 07ac 96be adfc e73e 66ca febe 572c 803f
00000010: 30b1 e93e 7186 9fbf 046b 25be 61f8 10bf
00000020: 2efa 033f da2a bdbf bea1 523f 66cc 81bf
00000030: d018 8a3f 1e27 40bb 59b2 d2be 20c5 9fbf
00000040: cd7b 6bbf 20b5 c93d 74b9 05bc 3e06 483f
00000050: 0880 45bf e080 2abe d313 803f 4e07 d8be
00000060: 4048 0440 9642 92bf a4ac b23f 5e62 8abe
00000070: cabb 70bf f183 32be 6d28 61bf 2d5c 843d
00000080: 183e 143f 716c d83e a6c2 2a3e e125 553f
00000090: c10c 5dbf 8fd5 0e3f 70fb dfbf d4db e1be
000000a0: fd5b e73f 79df cb3f 5f93 0b3e f1b4 e6be
000000b0: 3aca 013f 29e3 bbbe 67a2 5a3f f184 73bf
000000c0: 9e2e 1a40 30af 78bf e6c7 f93e 437f a23e
000000d0: 89af d9bf 3ba6 1a40 87c7 203f c05a b2be
000000e0: 7914 bb3f 2107 88be 0db6 903f 7da5 78be
000000f0: 09d7 a2bf c01f d73f dc04 ab3e a345 04bf
00000100: e7b9 93be 7f1a 56bf a542 e0be 659e 8b3f
00000110: d9f1 96bf cc86 45bf 8cb1 e2be 09d1 fc3d
00000120: 37dd 85be 4dab 22c0 10f6 34bf a788 1a3c
00000130: f74a 3f3f 96fd 823f d8ff aa3e a893 15c0
00000140: 39e1 61be b0a9 6f3f 01ff 1a3e 4b1f 4c3e
00000150: d77d b2bf 6ba0 0c3f 82a5 653f 90a3 cb3e
00000160: 285d 99bf c18d 19bf b11e da3e 7509 4bbf
00000170: 70e1 b93f 993d 0f3f f372 173e 11e3 12bf

embedding_layer.embedding_layers.C9.weight f4 [3, 4]
0.33016482 0.5548141 -0.9282705 -2.8798113 -1.8378166 2.0041203 0.1344135 0.6730827
0.8437154 1.233349 -1.9564881 -0.7919824
00000000: 5d0b a93e 4c08 0e3f 23a3 6dbf d44e 38c0
00000010: 933d ebbf 8243 0040 b1a3 093e 264f 2c3f
00000020: bcfd 573f 61de 9d3f 346e fabf 5cbf 4abf

embedding_layer.embedding_layers.C10.weight f4 [102, 4]
-0.104124345 1.140648 -0.9640117 0.6221156 1.1929305 1.08325 0.107907616 0.40960163
-0.4578322 1.5017476 -1.0291452 -1.9573127 0.20741741 0.74337447 0.75611526 0.3578764
-0.5391637 -1.6540467 0.111230895 -1.0565938 -0.7798686 -1.7292845 -0.81885123 1.430407
0.90842485 -0.93976974 -0.0988479 0.67212856 0.7245582 -1.3901662 -1.5580024 0.078096576
-0.38800365 -0.30971953 0.83734614 -0.8528231 0.12721549 -1.6560928 -0.6777889 -1.0952508
1.2662209 -0.26099795 1.2326268 0.051561598 -0.62273455 1.8512589 0.6853082 0.064490214
-0.9029146 -0.35844395 -0.39201382 -0.24371639 0.732324 0.25111255 0.38158375 -0.56652594
0.50245494 -0.5455237 -0.939072 -1.072145 -0.2768767 2.511147 -1.6464808 -1.191408
-1.9113348 0.57027626 1.7930789 0.09990012 0.30108443 -0.31589997 -0.46930537 -0.27644467
0.33641917 0.49227405 1.8036145 1.2259111 -0.014018926 0.15820672 0.2775254 0.80380493
1.4680935 -1.2799044 -1.8391842 0.6597047 -0.36832073 -0.11378636 -0.9198151 -1.7215899
1.5232255 -0.06231267 -0.7610834 0.86648995 -0.65510154 0.115540996 0.8310567 -0.03326762
-0.007530448 -1.256976 -0.17650719 0.65543664 -2.2827039 -0.3422361 -0.9517056 -0.36685228
0.91902447 0.045002524 -0.3161153 -0.7067356 -1.1169368 0.07550355 -0.18000615 -0.33484337
-2.494508 0.50216305 1.7693514 0.27899843 0.31375396 -0.14745721 2.3792186 -0.20234977
-1.1118189 0.289828 -0.75497794 0.6269901 -0.033102527 0.8872247 0.4799874 -1.7071095
-0.14249036 1.6230336 1.6175643 0.9519381 1.5016645 -0.4419039 -3.0255692 0.07266153
-2.067124 0.38395745 0.9223551 -0.6856001 1.1771251 0.095173284 -1.0368767 0.44005588
-0.1848606 -1.4278718 1.6401055 0.61377203 1.2948914 0.7439477 -0.26973096 -1.755797
-0.9530381 0.7321047 -0.9303522 -1.0058118 1.1712664 2.1898677 0.28810027 0.5810503
0.6881794 1.0623204 0.11382029 -0.23053113 2.021185 1.6644773 1.4374375 -1.3235636
0.41080275 -0.5699512 -0.4298505 0.3846013 0.5118518 -1.6844873 1.7068969 -0.5364273
0.120279506 -0.05226447 -0.69383883 1.7227439 -1.6172401 -0.8564442 -0.6703385 0.22628182
0.36914614 -0.7668294 -0.5968744 -1.5025883 -0.82499725 -0.01535746 -0.99413055 -0.2789357
1.4306272 -1.19934 0.29984254 -0.0077704852 -0.47223976 -0.6091555 -0.5739914 1.3348694
0.6881484 -0.97215986 -0.9392491 0.2684343 0.27047807 0.51415414 -1.4980272 -1.4651561
0.34337005 -1.7596197 0.0420666 0.361044 -1.0688461 -0.47629577 -0.29624245 1.4196551
-1.4019858 0.46666655 -0.63296 0.25663495 -0.5307751 2.424315 0.91459596 0.9993648
0.24487929 1.2198366 -1.5186332 -0.14983472 -0.60122395 1.8106194 -0.8998441 -1.1696401
0.7486071 -0.1382293 0.34860632 -0.30294153 0.45016783 -1.2188338 -0.7948577 0.4245166
-0.3501075 0.49499807 0.30628294 1.9605328 0.63939303 0.17428079 -0.2905673 -0.57641536
2.0057497 0.13755684 -0.40236354 1.3166364 -0.4925744 -0.052837625 -1.6556478 -0.35014945
00000000: 253f d5bd c100 923f 79c9 76bf f842 1f3f
00000010: f2b1 983f f0a7 8a3f abfe dc3d 4eb7 d13e
00000020: fb68 eabe 4439 c03f 08bb 83bf 3989 fabf
00000030: 3b65 543e ca4d 3e3f c590 413f 933b b73e
00000040: a206 0abf cdb7 d3bf 06cd e33d 773e 87bf
00000050: 78a5 47bf 3259 ddbf 3ca0 51bf 9417 b73f
00000060: 888e 683f c094 70bf c570 cabd 9e10 2c3f
00000070: a57c 393f f7f0 b1bf 9f6c c7bf 19f1 9f3d
00000080: 6aa8 c6be 8f93 9ebe 515c 563f 9d52 5abf
00000090: c744 023e d9fa d3bf 9383 2dbf 2e31 8cbf
000000a0: 8713 a23f 86a1 85be b7c6 9d3f 4132 533d
000000b0: 886b 1fbf 0df6 ec3f 5c70 2f3f 7213 843d
000000c0: 6925 67bf f785 b7be 09b6 c8be ca90 79be
000000d0: 9679 3b3f d391 803e f25e c33e d807 11bf
000000e0: e3a0 003f 71a7 0bbf 0667 70bf 0c3c 89bf
000000f0: c8c2 8dbe a2b6 2040 e2bf d2bf 0f80 98bf
00000100: 9ea6 f4bf a0fd 113f 9c83 e53f 6f98 cc3d
00000110: bd27 9a3e a4bd a1be cb48 f0be 288a 8dbe
00000120: 223f ac3e 580b fc3e d7dc e63f a8ea 9c3f
00000130: a3af 65bc f100 223e cf17 8e3e 29c6 4d3f
00000140: 7dea bb3f e8d3 a3bf 636a ebbf 68e2 283f
00000150: 8994 bcbe d308 e9bd 0179 6bbf 0f5d dcbf
00000160: 0ef9 c23f 923b 7fbd 5dd6 42bf 49d2 5d3f
00000170: bcb4 27bf c2a0 ec3d 22c0 543f a143 08bd
00000180: fac1 f6bb 97e4 a0bf 4dbe 34be b2ca 273f
00000190: d217 12c0 9239 afbe faa2 73bf 10d4 bbbe
000001a0: 3045 6b3f 9154 383d ddd9 a1be a0ec 34bf
000001b0: c9f7 8ebf 9ba1 9a3d 8853 38be 9770 abbe
000001c0: 05a6 1fc0 c28d 003f 1b7a e23f e2d8 8e3e
000001d0: 5ca4 a03e 06ff 16be 1e45 1840 c734 4fbe
000001e0: 1550 8ebf 5664 943e 3c46 41bf 6c82 203f
000001f0: 8496 07bd 2821 633f e9c0 f53e 9082 dabf
00000200: fee8 11be 91bf cf3f 590c cf3f 37b2 733f
00000210: 8b36 c03f 3a41 e2be eda2 41c0 91cf 943d
00000220: c24b 04c0 1296 c43e 771f 6c3f 7d83 2fbf
00000230: 09ac 963f 36ea c23d 60b8 84bf 014f e13e
00000240: 194c 3dbe 81c4 b6bf faee d13f 2a20 1d3f
00000250: 00bf a53f 5b73 3e3f 2d1a 8abe f5bd e0bf
00000260: 4efa 73bf 376b 3b3f 902b 6ebf 71be 80bf
00000270: 0fec 953f cb26 0c40 e181 933e b6bf 143f
00000280: 862c 303f 1dfa 873f 9d1a e93d 5a10 6cbe
00000290: 185b 0140 980d d53f f4fd b73f 886a a9bf
000002a0: bd54 d23e 52e8 11bf 5d15 dcbe 76ea c43e
000002b0: b808 033f 489d d7bf 997b da3f 4d53 09bf
000002c0: 1a55 f63d 4513 56bd 6c9f 31bf df82 dc3f
000002d0: b901 cfbf ed3f 5bbf 4e9b 2bbf 6cb6 673e
000002e0: b900 bd3e ee4e 44bf c3cc 18bf d054 c0bf
000002f0: 0533 53bf db9d 7bbc 577f 7ebf a9d0 8ebe
00000300: cb1e b73f f983 99bf f684 993e 8e9f febb
00000310: 69c9 f1be 9df1 1bbf 1af1 12bf 00dd aa3f
00000320: 7e2a 303f 78df 78bf a172 70bf 3870 893e
00000330: 1a7c 8a3e 9b9f 033f 5bbf bfbf 3c8a bbbf
00000340: 33ce af3e 383b e1bf 074e 2c3d c2da b83e
00000350: f3cf 88bf 0add f3be 17ad 97be 42b7 b53f
00000360: 4574 b3bf ebee ee3e ab09 22bf a865 833e
00000370: e1e0 07bf fa27 1b40 f622 6a3f 5fd6 7f3f
00000380: a3c1 7a3e 9b23 9c3f 9362 c2bf 466e 19be
00000390: d0e9 19bf 60c2 e73f 2f5c 66bf c4b6 95bf
000003a0: b7a4 3f3f fb8b 0dbe 877c b23e 271b 9bbe
000003b0: 667c e63e bf02 9cbf cb7b 4bbf 3d5a d93e
000003c0: 4a41 b3be 6370 fd3e 1ed1 9c3e bdf2 fa3f
000003d0: 43af 233f aa76 323e 3dc5 94be f58f 13bf
000003e0: 345e 0040 b3db 0c3e 9802 cebe 8b87 a83f
000003f0: b632 fcbe 446c 58bd 44ec d3bf ca46 b3be

embedding_layer.embedding_layers.C11.weight f4 [224, 4]
0.117472105 -1.9265937 -0.7784525 -0.42114666 -0.001294319 1.3729651 0.19584915 1.4686279
1.472974 0.1372674 -0.58045924 -0.32034123 -0.3043548 0.7653138 0.3618392 0.10976934
0.5015414 0.5254689 -0.3977503 0.57426983 -0.85618484 -1.1277617 -0.04518475 -0.15283231
0.043616083 1.1041987 0.45797992 1.4243599 -1.2703111 -1.4409498 -0.57193905 0.7748949
3.2560503 -0.727152 -1.0691072 -0.2804756 0.34042594 -0.4199359 -0.6976039 0.4080072
-0.14284246 1.4204916 0.37584132 -0.053843684 0.24755433 -1.1838262 -1.6303679 0.32782197
0.5241503 0.6895836 0.6469857 -0.61008435 0.7716375 -0.94356054 0.23124194 -0.30244744
-0.87905025 2.255584 -0.44223133 -0.5927189 0.82837754 1.3499364 -0.04354373 0.3070694
-0.1492435 2.1404736 -0.13881396 1.1260798 -0.117779054 1.5689284 0.31689864 -0.2851452
0.883447 -0.6827004 -2.253724 -1.6527888 -0.42917582 -0.086931735 -0.45469224 -1.1288797
0.03637873 -0.075028464 -1.279764 0.2344507 -0.3067227 -0.08884339 0.15822452 -0.6033416
0.057686653 -0.7382452 0.23892075 0.8134273 -1.6079772 0.52085274 0.38739914 0.19210446
1.3963803 -0.6319431 0.43088233 0.8191223 0.41429174 2.7353404 -0.6842955 -0.3984254
1.8847623 -0.44984943 0.32313025 -0.43115062 -0.35779127 1.0606151 1.1569328 -0.58311915
-1.5908067 -0.8283709 -0.64275897 1.5253896 -0.082781106 0.83681 0.2929729 -1.4937303
-1.8539268 -1.2543344 -1.5135155 0.95625335 1.6295841 -0.025721153 -0.71027106 0.61647266
0.37566504 0.7742445 -2.429932 0.2907482 0.18542252 -0.104224116 0.9920505 -1.1439825
1.7390829 -2.241751 -1.030799 0.58839655 -0.76243746 -0.071644954 0.65557593 -0.8751612
0.61830044 -0.39783454 1.9481236 -0.65813863 -0.6054611 -0.034485944 1.1263251 0.122949265
0.47379604 2.3292897 1.8820089 0.20746411 1.476985 -0.444241 1.6666081 -1.327375
0.078578874 -0.5233742 2.0761402 -1.056296 -0.41617683 1.7084423 0.3480095 0.8337798
1.9355851 -0.67970675 0.65415794 0.09078409 -0.66585743 -1.0934162 -1.3467772 -0.34369743
-1.5037026 1.6775318 -0.34947583 -0.24350084 1.0983605 -0.2994516 -0.6214298 1.3910058
-1.4933826 0.77545726 -0.12823248 0.616992 1.0176316 -1.2094761 -1.1118085 -0.018507404
1.6804276 0.06535856 1.5989778 1.1695163 -0.66935897 -1.0754724 2.0939696 1.1482975
0.373664 -0.22404464 -0.13808388 -0.36381292 0.0058021606 0.46379763 -0.9305069 2.759421
-0.8268538 -1.2211128 -2.0275495 -0.24512604 0.25826794 -0.17233413 1.2716115 1.3785772
-0.36170882 0.119567774 1.887868 0.07102614 -0.51291656 -1.1141447 -0.33611757 -0.42623794
0.08917597 -1.8135258 0.6995404 0.8971647 -1.4131925 -1.5135547 -1.7370918 -1.3181447
1.4016103 -2.5277674 0.7121643 1.2959915 -1.1391298 -0.70033383 -1.6106232 1.3582573
-0.25207436 -0.24162997 0.54340285 0.44189644 0.17637745 0.31092975 0.124687225 0.6240253
-0.079578444 -1.0784574 1.344425 -1.004351 1.2102506 -0.15141588 -1.6567918 0.27455088
00000000: 3795 f03d 9f9a f6bf aa48 47bf 89a0 d7be
00000010: 24a6 a9ba 52bd af3f ae8c 483e 00fc bb3f
00000020: 698a bc3f d38f 0c3e fa98 14bf c403 a4be
00000030: 64d4 9bbe 9beb 433f fd42 b93e bfce e03d
00000040: 0465 003f 2185 063f eda5 cbbe 5903 133f
00000050: ee2e 5bbf 7f5a 90bf a513 39bd 1380 1cbe
00000060: c7a6 323d 6256 8d3f 587c ea3e 6d51 b63f
00000070: 8e99 a2bf 0b71 b8bf 996a 12bf 835f 463f
00000080: 2163 5040 a226 3abf 81d8 88bf 7f9a 8fbe
00000090: 4f4c ae3e d701 d7be 2b96 32bf 52e6 d03e
000000a0: 4b45 12be abd2 b53f 466e c03e 328b 5cbd
000000b0: e27e 7d3e 9e87 97bf e5af d0bf 48d8 a73e
000000c0: b72e 063f 8d88 303f dba0 253f 7d2e 1cbf
000000d0: 098a 453f 2f8d 71bf b0ca 6c3e 64da 9abe
000000e0: 7009 61bf 7d5b 1040 256c e2be 6dbc 17bf
000000f0: 8d10 543f b7ca ac3f e95a 32bd 3338 9d3e
00000100: 4ad3 18be 85fd 0840 3f25 0ebe 6223 903f
00000110: 2536 f1bd a5d2 c83f 8a40 a23e 8dfe 91be
00000120: 9529 623f 74c5 2ebf 043d 10c0 958e d3bf
00000130: efbc dbbe 4409 b2bd 6ccd e8be 217f 90bf
00000140: dd01 153d 86a8 99bd 4fcf a3bf d813 703e
00000150: c20a 9dbe 86f3 b5bd 9c05 223e 9874 1abf
00000160: d748 6c3d a3fd 3cbf a4a7 743e c63c 503f
00000170: 32d2 cdbf 9b56 053f 2e59 c63e 08b7 443e
00000180: 97bc b23f 06c7 21bf 9c9c dc3e 00b2 513f
00000190: 0c1e d43e d10f 2f40 fd2d 2fbf 6afe cbbe
000001a0: e43f f13f aa52 e6be 5471 a53e c6bf dcbe
000001b0: 6b30 b7be 3cc2 873f 6016 943f 4c47 15bf
000001c0: 8e9f cbbf 1e10 54bf da8b 24bf f73f c33f
000001d0: 2489 a9bd 2e39 563f 8b00 963e 8e32 bfbf
000001e0: 794d edbf 088e a0bf e0ba c1bf 05cd 743f
000001f0: 3696 d03f 2bb5 d2bc 53d4 35bf 27d1 1d3f
00000200: 2b57 c03e e334 463f 0284 1bc0 f3dc 943e
00000210: 67df 3d3e 7473 d5bd 06f7 7d3f 056e 92bf
00000220: 459a de3f d978 0fc0 39f1 83bf 28a1 163f
00000230: 1a2f 43bf 97ba 92bd d3d3 273f 900a 60bf
00000240: f048 1e3f f8b0 cbbe 1d5c f93f c67b 28bf
00000250: 80ff 1abf 2241 0dbd 6c2b 903f d3cc fb3d
00000260: 6595 f23e 1513 1540 abe5 f03f 7971 543e
00000270: d80d bd3f 8e73 e3be 6a53 d53f 6de7 a9bf
00000280: f6ed a03d dafb 05bf 7bdf 0440 b534 87bf
00000290: 2115 d5be 3dae da3f 4d2e b23e 9872 553f
000002a0: 41c1 f73f 4301 2ebf e576 273f 02ed b93d
000002b0: a275 2abf 10f5 8bbf 3263 acbf 1cf9 afbe
000002c0: 5479 c0bf 5db9 d63f 7fee b2be 4958 79be
000002d0: 1497 8c3f b851 99be 0616 1fbf 7a0c b23f
000002e0: 2927 bfbf 5e84 463f 604f 03be 30f3 1d3f
000002f0: c141 823f 1dd0 9abf be4f 8ebf d79c 97bc
00000300: 4018 d73f b5da 853d 4eab cc3f b6b2 953f
00000310: 1c5b 2bbf 14a9 89bf 9903 0640 6afb 923f
00000320: e350 bf3e f56b 65be dc65 0dbe b045 babe
00000330: 0d20 be3b e276 ed3e b335 6ebf 5b9a 3040
00000340: b1ac 53bf 6d4d 9cbf 5fc3 01c0 5202 7bbe
00000350: b23b 843e 5c78 30be 2ac4 a23f 3875 b03f
00000360: e631 b9be f3df f43d a9a5 f13f 2776 913d
00000370: 804e 03bf 4b9c 8ebf 9a17 acbe dc3b dabe
00000380: e4a1 b63d 9d21 e8bf 1415 333f 96ac 653f
00000390: 7ee3 b4bf 29bc c1bf 0659 debf f7b8 a8bf
000003a0: f767 b33f f1c6 21c0 6650 363f 0de3 a53f
000003b0: 01cf 91bf 1449 33bf e728 cebf 60db ad3f
000003c0: e40f 81be d96d 77be 731c 0b3f 4040 e23e
000003d0: 4a9c 343e 2f32 9f3e 045c ff3d 1fc0 1f3f
000003e0: 06fa a2bd e40a 8abf 1e16 ac3f 938e 80bf
000003f0: 7ee9 9a3f c40c 1bbe c111 d4bf ef91 8c3e

embedding_layer.embedding_layers.C12.weight f4 [65, 4]
0.2706761 -0.8811348 -0.91155684 1.4922743 1.0337371 -1.0425297 0.015597283 -1.2372477
0.96603745 0.44291657 1.224651 1.5478166 0.8581897 -0.49122933 0.5076427 0.6665
0.5784899 -0.6052279 1.1598116 1.3186555 0.2059089 0.042685572 -0.3762368 -0.2119273
0.7138796 -1.8854979 0.19387023 -1.7198828 -0.53156453 0.514164 -0.046885982 -0.644132
-0.15142405 -2.8340855 0.9302961 1.432957 0.6646723 -0.7664922 0.82291317 1.0676131
-0.9395398 0.7539185 -0.07433287 -0.550547 0.046215605 0.98808557 -1.3799342 1.5790555
-0.98687685 -1.2533023 -0.34021717 -1.5483521 -2.0563402 0.80365705 -0.8098884 -0.115478925
0.23393525 -0.52934605 -1.1163137 -0.36227083 -0.41747528 -0.4202372 0.85617197 2.3526752
-0.27581576 1.0130095 -0.065453686 0.9447956 0.34531075 0.4493478 0.27751917 1.3817896
0.29145184 0.4732636 -0.79501975 -2.257318 -0.8124846 -0.79058266 -1.8345525 -1.1516441
-1.5540172 -2.1266475 0.011507757 1.5266384 -1.3982366 0.16932265 1.1987565 0.07183923
0.86712825 -0.7629839 0.23057497 1.3589685 0.28329816 -0.006166836 -0.65758497 1.1113495
1.306308 -0.51259 1.8625346 0.6414891 0.7819432 1.3859774 -0.41154253 2.5325582
0.43605703 -0.30829284 -0.91980577 -0.45246288 0.43759874 -0.41464147 -1.3793538 -0.70107317
0.37189022 1.1083342 0.8662496 2.882233 -1.086005 -0.6848832 0.79342234 -0.32630718
-0.66967565 1.7452915 1.2360588 -0.31001246 0.75419885 0.8295899 0.22527434 -0.55760396
-1.7727442 0.35508928 0.5749633 0.34073365 -1.5329161 0.9510334 1.8809329 0.6841537
0.49313858 -0.15285501 1.363422 0.9069618 0.682177 -1.6925853 -0.5648323 -0.2682546
-2.03592 0.15652815 -1.718845 -0.28756833 -0.18595706 -1.3561956 0.5035373 -0.07927053
-0.153826 -0.21399261 -2.1467984 0.012260141 -0.18347327 0.34526318 -1.195161 1.7732275
-0.6844741 0.07874254 -1.7957575 -0.70366985 -1.431366 -1.6348771 -0.6027079 0.093506806
0.046918474 -1.7305183 0.40848765 0.97128797 -0.059763804 -0.6061066 -0.21937695 0.31888908
-0.64515716 -1.698456 -1.2294178 -0.46854544 0.60702395 1.662125 -0.6661508 -0.49601486
-1.0504152 -0.03299779 -2.7141795 0.57423806 -0.43784884 1.4568791 -0.90573585 -1.1038306
-0.18309921 0.1395181 -0.5707127 0.65797496 0.78942806 -1.9312092 -0.73813796 -0.40263847
-0.24013852 -1.3660331 -1.0252353 -0.08575321 -1.6152136 0.36392206 0.4771496 1.2605237
-0.5997323 -0.58319587 0.29490197 0.3300545 0.061164044 0.573545 -0.9753284 -0.22489838
-0.549903 -0.36418542 -1.5044651 -0.28381523 -0.16150324 0.5011105 0.40329045 1.775296
0.22192283 0.018563991 0.30081916 0.57452536 0.2990025 0.32715675 -0.04373223 -0.83868206
0.4175099 -0.8428143 -1.4464921 -1.2111894 -0.65887296 1.0696476 1.2395141 0.3479044
-0.78612894 0.7306754 0.0966722 0.58042544 -2.9092355 -1.0545098 -0.8982394 0.66843164
-0.37381685 -0.35780072 -1.2610464 0.44461206 -1.4392755 0.14892328 0.5203362 -1.7163821
00000000: 0f96 8a3e 0d92 61bf ca5b 69bf d802 bf3f
00000010: 7f51 843f 9d71 85bf bf8b 7f3c 225e 9ebf
00000020: 3b4e 773f f6c5 e23e 5dc1 9c3f db1e c63f
00000030: 52b2 5b3f 6982 fbbe dff4 013f be9f 2a3f
00000040: ea17 143f 37f0 1abf b574 943f b4c9 a83f
00000050: c8d9 523e 11d7 2e3d 1ca2 c0be 7803 59be
00000060: d0c0 363f ff57 f1bf eb85 463e 1f25 dcbf
00000070: 9d14 08bf 40a0 033f 840b 40bd d6e5 24bf
00000080: e80e 1bbe a861 35c0 e327 6e3f 236b b73f
00000090: f727 2a3f d538 44bf 70aa 523f 8ca7 883f
000000a0: ae85 70bf ce00 413f d53b 98bd a6f0 0cbf
000000b0: 934c 3d3d 2df3 7c3f afa1 b0bf 7e1e ca3f
000000c0: f6a3 7cbf 366c a0bf f230 aebe 6730 c6bf
000000d0: 149b 03c0 78bc 4d3f d954 4fbf 3780 ecbd
000000e0: b98c 6f3e 3983 07bf 5ee3 8ebf 907b b9be
000000f0: 52bf d5be 5529 d7be 162e 5b3f 3b92 1640
00000100: b937 8dbe 4caa 813f 950c 86bd 20de 713f
00000110: 92cc b03e ea10 e63e fe16 8e3e 7bde b03f
00000120: 2d39 953e 9b4f f23e 6a86 4bbf e677 10c0
00000130: fefe 4fbf a063 4abf 9ed2 eabf 1369 93bf
00000140: 09ea c6bf fe1a 08c0 088b 3c3c e368 c33f
00000150: 6bf9 b2bf eb62 2d3e da70 993f 7220 933d
00000160: 1efc 5d3f ea52 43bf d81b 6c3e aef2 ad3f
00000170: 750c 913e 2b13 cabb 7d57 28bf b340 8e3f
00000180: 1a35 a73f 1939 03bf 8967 ee3f a138 243f
00000190: 6e2d 483f b567 b13f b4b5 d2be 6f15 2240
000001a0: de42 df3e 8fd8 9dbe 6478 6bbf 37a9 e7be
000001b0: f10c e03e e34b d4be aa8e b0bf 8879 33bf
000001c0: 6568 be3e e5dd 8d3f 89c2 5d3f 8176 3840
000001d0: 3602 8bbf 8154 2fbf ba1d 4b3f bc11 a7be
000001e0: dd6f 2bbf b665 df3f 2d37 9e3f f4b9 9ebe
000001f0: 2d13 413f 0160 543f 51ae 663e 22bf 0ebf
00000200: 48e9 e2bf 43ce b53e cb30 133f a474 ae3e
00000210: 9836 c4bf ed76 733f 69c2 f03f b224 2f3f
00000220: a97c fc3e 0686 1cbe 9d84 ae3f a62e 683f
00000230: 27a3 2e3f a3a6 d8bf da98 10bf ab58 89be
00000240: 834c 02c0 ea48 203e 1d03 dcbf 283c 93be
00000250: 876b 3ebe d197 adbf d2e7 003f 9658 a2bd
00000260: 9084 1dbe e120 5bbe 2565 09c0 c2de 483c
00000270: 6be0 3bbe 56c6 b03e 09fb 98bf 1ef9 e23f
00000280: b239 2fbf c543 a13d 62db e5bf b523 34bf
00000290: 0037 b7bf a743 d1bf 114b 1abf 7f80 bf3d
000002a0: 962d 403d a081 ddbf 4b25 d13e 54a6 783f
000002b0: e4ca 74bd cd29 1bbf 5aa4 60be 6e45 a33e
000002c0: 0529 25bf 0267 d9bf 905d 9dbf 30e5 efbe
000002d0: ec65 1b3f 83c0 d43f dc88 2abf a9f5 fdbe
000002e0: 0174 86bf b128 07bd 1eb5 2dc0 4401 133f
000002f0: b92d e0be 047b ba3f 4ede 67bf 524a 8dbf
00000300: 5c7e 3bbe d5dd 0e3e 3a1a 12bf 0c71 283f
00000310: f517 4a3f dd31 f7bf 9cf6 3cbf a126 cebe
00000320: dfe6 75be 2cda aebf e93a 83bf 619f afbd
00000330: 52bf cebf fe53 ba3e f44c f43e d758 a13f
00000340: 0e88 19bf 534c 15bf 64fd 963e e7fc a83e
00000350: 2687 7a3d d8d3 123f 1faf 79bf c34b 66be
00000360: 71c6 0cbf 8376 babe 5092 c0bf 3b50 91be
00000370: 1b61 25be c748 003f 167c ce3e e63c e33f
00000380: bd3f 633e 8313 983c f804 9a3e 1814 133f
00000390: db16 993e 1781 a73e 9120 33bd deb3 56bf
000003a0: dcc3 d53e aec2 57bf a726 b9bf 4108 9bbf
000003b0: e6ab 28bf 36ea 883f 66a8 9e3f 8720 b23e
000003c0: bf3f 49bf 8b0d 3b3f 13fc c53d c396 143f
000003d0: ea30 3ac0 2dfa 86bf 04f3 65bf 561e 2b3f
000003e0: ec64 bfbe a831 b7be f869 a1bf 31a4 e33e
000003f0: 2e3a b8bf 587f 183e c134 053f 69b2 dbbf
