ModelZoo/DCNv2/DCNv2_torch/checkpoints/2025-05-15/21-41-32_AUC_0.72313_Loss_0.47867_Epoch_1.pt (torch, 318582 bytes, 39 tensors)

embedding_layer.embedding_layers.C1.weight f4 [31, 4]
000000 8f 7c 9c bf 4a 50 05 bc 11 93 c3 3f 4c 75 ec be
       -1.2225512 -0.008136818 1.5279256 -0.4618324
000010 82 58 8c 3e 26 e1 80 be 4e e9 1c 3f fc e4 92 bf
       0.27411276 -0.25171775 0.61293495 -1.147613
000020 67 29 e8 3d ed 03 f1 bf 22 83 0b 40 76 53 40 be
       0.11336022 -1.8829323 2.1798787 -0.18781838
000030 9c 9c 09 3f 6c 53 64 bf 26 9f a2 be 97 ac 45 3f
       0.5375459 -0.8918979 -0.31762046 0.77216476
000040 6d 31 f0 3d bf fb 0a c0 87 96 b6 3e ca b8 d8 3e
       0.11728177 -2.1716154 0.35661718 0.42328483
000050 59 fa ed 3f 2d 3f fc 3f 33 0a dd be 63 75 af 3f
       1.8592025 1.970678 -0.43171844 1.3707699
000060 56 c6 57 3f 54 a4 05 bd 14 42 d4 3f 78 72 a6 bf
       0.8428701 -0.03262742 1.6582665 -1.3003683
000070 96 07 7e 3f ac 4c 70 3f 1a 08 b4 3f e4 77 23 3f
       0.99230325 0.9386699 1.4064972 0.63854814
000080 76 0b 2e 40 9b 98 bb bf 39 0b bc bf c0 33 73 3d
       2.7194495 -1.4655946 -1.4690925 0.059375525
000090 0f 57 a3 3f 70 f2 25 bf 67 96 66 bf f0 e0 a2 3f
       1.2760943 -0.64823055 -0.90073246 1.2724895
0000a0 21 90 52 3f 96 fc ed 3e 3f 62 c8 3e 1d fb 88 bf
       0.82251173 0.4648177 0.39137456 -1.0701634
0000b0 ca 15 86 bd b1 6b 77 bd 23 33 93 3e 28 80 74 be
       -0.06547125 -0.060405437 0.28749952 -0.23877013
0000c0 c8 b9 37 3f 0f 77 b4 bf 83 7d e0 be bc bd b8 3e
       0.71767855 -1.4098834 -0.43845758 0.36082256
0000d0 cf 07 bd 3e 1c 42 a6 bf 50 52 4c bf f4 04 87 3f
       0.3692002 -1.2988925 -0.798131 1.0548387
0000e0 0d b8 02 be 82 c4 cd 3e d0 86 b7 bf 46 0e 0e bf
       -0.12765522 0.40188986 -1.4338017 -0.5549053
0000f0 66 0a 33 3f 26 01 f4 3d ce 8b 26 bd 63 73 09 3f
       0.6993774 0.119142815 -0.040660672 0.5369169
000100 91 6a 9f 3e 48 51 ee bf 4f e0 c1 bd 70 a5 40 3f
       0.3113599 -1.8618555 -0.094666116 0.7525244
000110 57 72 1b 3f 67 36 e1 be 10 5a c1 3d 08 cf 16 be
       0.60721344 -0.43986818 0.09441006 -0.14727414
000120 81 69 09 bf 66 63 6f 3f d2 ec a2 3e 16 c6 c2 3f
       -0.5367661 0.93511045 0.31821305 1.5216701
000130 e7 1b 39 be f8 33 6a 3f 29 bd a8 be 72 64 b3 3f
       -0.1807705 0.9148555 -0.32956818 1.4015028
000140 e3 bd 9f bf 6a 8d 03 be 1d c2 17 bf 3f 9d ba be
       -1.2479824 -0.12846914 -0.5928057 -0.36448094
000150 e7 a4 94 bf 2b fe 95 3f 19 f4 31 3e a8 02 af 3f
       -1.1612824 1.1718191 0.17378272 1.3672686
000160 97 39 42 3e 74 0f 9e 3f 6e c6 79 3f 62 12 2a 3e
       0.18967281 1.2348466 0.97568405 0.16608575
000170 10 f3 7c bf eb b3 8d 3f 71 24 68 3f e7 3b e5 3f
       -0.98808384 1.1070532 0.90680605 1.7908906
000180 59 9f 3c 3f b2 35 58 be 21 90 d4 bd 61 9d 43 3f
       0.73680645 -0.21114233 -0.10379053 0.76412016
000190 72 4d 2e 3f 4c d1 89 bf d0 2b 51 bf 96 f4 49 bf
       0.6808692 -1.0766997 -0.8170748 -0.78888834
0001a0 c8 8e 70 3f cc 7f 78 bf 12 cf cd 3d af 84 8c bf
       0.93967867 -0.9707 0.10049261 -1.0977992
0001b0 bb d7 88 3f 8e 37 ae 3f 85 b1 84 3e 8d 2a ba bf
       1.0690836 1.3610704 0.25916687 -1.4544235
0001c0 f7 cd 28 3f f3 65 0e 3f bb 87 77 be f7 2a c8 3e
       0.6593928 0.5562431 -0.24172871 0.3909528
0001d0 a8 f2 d3 3f 93 c9 4d bf 45 e8 5c bf 47 72 97 3f
       1.6558428 -0.803857 -0.86291915 1.183175
0001e0 8d 1e 06 bd 30 b5 c6 3f 2a ca ce bf b0 67 ae bf
       -0.03274398 1.5524044 -1.6155446 -1.3625393

embedding_layer.embedding_layers.C2.weight f4 [145, 4]
000000 c5 b4 66 3c 6f cc c1 3e 3d ce 6a bf 0f e0 e6 be
       0.014081185 0.37851283 -0.91720945 -0.45092818
000010 42 4c c1 be 78 6d 6f bf 0f 92 62 bf d3 6b 5b 3e
       -0.37753493 -0.9352641 -0.8850412 0.2142785
000020 12 3b 67 bf 6e 3c 73 be 11 fa f1 bd 60 9a 0d 3e
       -0.9032451 -0.23753521 -0.118152745 0.1382842
000030 0a d8 d5 be b1 2f d7 3e 97 46 83 be ba 09 6d bf
       -0.41766387 0.42028573 -0.25639793 -0.92592967
000040 bf 61 2d bf f6 8c ae bf c5 ba 1b 3e 28 db 01 bf
       -0.67727274 -1.3636768 0.15207966 -0.5072503
000050 77 58 d6 3f 4f 7c 6d bf e8 57 03 bf 5d e9 05 be
       1.6745747 -0.92767805 -0.5130601 -0.13077302
000060 ab ec 03 bf e3 2e 38 bf 7a 6a a2 3f a6 b5 89 3f
       -0.51533 -0.71946543 1.2688744 1.075856
000070 76 c7 ab 3f 18 fc 93 bd 66 95 d1 3e a8 61 07 3f
       1.3420246 -0.072258174 0.40934294 0.52883387
000080 40 05 e8 3f 73 2b 89 3f cd 00 cb bd f2 75 de 3f
       1.8126602 1.0716385 -0.09912262 1.7379744
000090 f6 69 b4 3e 8a 7c 27 bf 53 58 8f 3e 83 da 69 3f
       0.35237092 -0.65424407 0.27997074 0.9134905
0000a0 db de 30 bf 45 9c 73 bf 4b 95 e3 be 6b ac 69 bf
       -0.6909005 -0.95160323 -0.4444984 -0.91278714
0000b0 8a 97 16 c0 ba 85 bb 3e 75 4d 07 c0 2d df b3 be
       -2.3529992 0.36625463 -2.1141026 -0.35131207
0000c0 f0 92 76 3f 7c f5 76 bf 7e 2b be be 6e c8 b5 3f
       0.9631796 -0.9646833 -0.37142557 1.4201791
0000d0 e4 b1 39 3f fd b2 4d be e9 4a f1 3f e9 7f 21 3f
       0.72537065 -0.2008781 1.8850986 0.630858
0000e0 10 5f b2 bf ff 05 1e 3f c3 0d 04 3f 6a e4 89 bf
       -1.3935261 0.617279 0.515835 -1.0772831
0000f0 99 fa 3b 3f d3 35 c7 3e 53 55 d4 be 79 7e 15 3f
       0.73429257 0.38908252 -0.41471347 0.58396107
000100 aa 53 bf be 77 8e 2a 3f e4 5a d3 bf 02 34 7a 3e
       -0.37368518 0.66623634 -1.6512113 0.24433902
000110 2b ce f4 3e 01 08 21 bf 3a e0 ef 3e 10 4d 90 bf
       0.47813544 -0.6290284 0.4685076 -1.1273518
000120 28 04 48 3f 67 dc 3f 3c 70 75 82 bf dc 38 58 3f
       0.7813134 0.011710263 -1.0192089 0.8446176
000130 95 8a 18 bf 15 b7 b9 3e 0c 42 75 bf 06 62 c7 3d
       -0.5958646 0.36272493 -0.95803905 0.09735493
000140 71 b0 9a bc 48 0e d8 bf 76 cc 81 3e 77 54 d0 3e
       -0.018882962 -1.6879358 0.25351304 0.40689442
000150 3a f1 04 bf a6 f3 93 3f 17 28 32 3f df 57 9d bf
       -0.5193058 1.1558731 0.6959242 -1.2292441
000160 34 a2 4c 3f 51 c2 7b bf 9d 89 90 3e d7 c2 4c be
       0.79935 -0.9834338 0.2822999 -0.199962
000170 d7 0e 98 bf cb 1d 49 3e d1 f1 c8 bf 0b 3d c9 3f
       -1.1879529 0.19640271 -1.5698797 1.5721754
000180 27 12 33 bf 9c 6d 64 3f 79 21 0a 3f 03 33 31 3f
       -0.69949573 0.8922975 0.53957325 0.6921846
000190 42 e2 99 3f 44 55 53 bf 8e 7d d5 3f 07 6d 4f 3f
       1.2022173 -0.8255198 1.6678941 0.8102574
0001a0 20 dc d3 be 17 0e 35 bf 54 98 8a bf da 7e a3 3e
       -0.4137888 -0.70724624 -1.0827737 0.31932718
0001b0 bd e0 08 bf 81 98 19 3e 17 76 d1 3f 67 06 d7 3c
       -0.53467923 0.14999582 1.6364163 0.02624817
0001c0 5e 55 d3 bf fe 95 0e bf e7 d1 ea 3f 88 59 1f bf
       -1.6510427 -0.5569762 1.8345307 -0.6224599
0001d0 40 fe 8d 3f 20 f6 ef 3e b3 62 ff bf 4d 73 95 3d
       1.1093216 0.46867466 -1.9951996 0.072973825
0001e0 ec f8 23 3f fb 04 dd 3e 57 86 ab 3e c4 90 04 c0
       0.640517 0.43167862 0.3350093 -2.0713358
0001f0 60 12 81 3f 58 3f ef be 4a 73 e0 3f 7e 30 99 3f
       1.0083733 -0.46728015 1.7535183 1.1967924
000200 c9 b4 2a 3f 80 37 b0 3e 04 38 68 3e d2 fa 42 3f
       0.66682106 0.34417343 0.22677618 0.7616397
000210 53 cd 37 be 97 8b 9a bd 99 f3 68 3f 15 fb c6 be
       -0.17949419 -0.07546156 0.909967 -0.38863435
000220 6a 58 a9 3f 2a 49 35 3f d7 c9 af bf 69 19 8a be
       1.3230107 0.70814764 -1.3733472 -0.2697251
000230 f5 a5 57 3f 32 09 60 be 3d 26 f8 bf dd aa b1 3f
       0.84237605 -0.21878508 -1.9386669 1.3880268
000240 7a e1 e1 3f f3 ac 39 3f 54 21 d7 3d 28 63 02 c0
       1.7646935 0.72529525 0.10504404 -2.037302
000250 9c 2e 06 3f 0a 1f 53 3f c1 4b 92 3e a2 e4 d7 3f
       0.5241487 0.82469237 0.2857342 1.6866648
000260 19 2d c7 bf 21 ac bb 3f 58 e7 17 3d 8d 38 8c 3f
       -1.5560638 1.4661905 0.03708586 1.0954758
000270 2c 14 8c bf 87 07 12 3e 59 35 b2 3e 3d 23 36 be
       -1.0943656 0.14260684 0.34806326 -0.1778688
000280 aa c9 64 3f 8e 17 17 3f 1c 94 69 3b 04 ea 8c 3f
       0.89370215 0.59020317 0.0035641259 1.1008916
000290 b0 26 94 bf 87 dd e7 3f b6 d5 c8 bf 98 88 e5 bf
       -1.1574306 1.811448 -1.5690219 -1.793231
0002a0 b3 72 8e be 9f a2 cc 3e ce a2 15 3f b6 bd a7 bd
       -0.27821884 0.3996782 0.58451545 -0.08190481
0002b0 9f ef cb bf c2 40 f8 bd 13 b1 f6 3d c4 11 a1 bf
       -1.5932502 -0.121217266 0.12045493 -1.2583547
0002c0 41 f8 7a bf 5f b5 75 bf 30 6d a1 3f 77 ed ec be
       -0.98035055 -0.95979875 1.2611446 -0.4627492
0002d0 cb 25 aa be 97 ce 8d 3f f3 3e 28 3e 75 d3 03 bf
       -0.3323196 1.1078671 0.16430263 -0.5149453
0002e0 49 ca ac be 97 ab a9 3f 3b 7b 80 bf 97 48 74 be
       -0.3374808 1.325549 -1.0037607 -0.23855816
0002f0 24 90 5e bf 10 e9 20 3f 3b 6f 72 be bb ff 94 3f
       -0.8693869 0.62855625 -0.23675244 1.1640543
000300 bf f6 d6 bf dc ed 83 3f a1 fb 37 be 06 b3 0f 3f
       -1.6794051 1.0306964 -0.17967083 0.56132543
000310 4f a7 0c bf 79 5c 50 be 4d c9 3e 3f e2 11 0e bf
       -0.5494279 -0.20347776 0.7452591 -0.55496037
000320 98 92 69 bf 46 ae 92 3f 9d 63 21 bf 0e a3 0f be
       -0.9123931 1.1459434 -0.6304262 -0.14027044
000330 ec 8d 91 3e f7 43 03 3f fa 20 90 bf eb e3 a2 3f
       0.2842859 0.5127558 -1.1260064 1.2725805
000340 97 38 97 bf 43 d6 8f bf fb d4 d5 bd 1c 57 82 3f
       -1.1814145 -1.1237262 -0.104410134 1.0182834
000350 17 ac 66 bf 52 76 9e 3e f1 40 a5 3f 22 91 cc bf
       -0.9010634 0.30949646 1.2910444 -1.5981791
000360 21 23 34 3d a8 5d 46 3e f0 fb 17 3f 09 7d 4e be
       0.043978814 0.19371665 0.593688 -0.20164885
000370 ce 06 a7 bf 05 7f ae be 3b 34 04 bf 25 a7 8b 3e
       -1.3048952 -0.34081283 -0.516422 0.2727596
000380 bb 68 70 bf 68 7d 8e 3f 75 85 45 40 09 80 38 3f
       -0.93909806 1.1132021 3.0862706 0.72070366
000390 29 62 40 3f c8 54 61 bf 2d 34 16 3f fc 98 a1 bf
       0.7514978 -0.8801999 0.58673364 -1.2624812
0003a0 03 91 54 bf fe ec 12 bf de b7 1f 40 ae e0 83 bf
       -0.8303377 -0.5739287 2.4955974 -1.0302942
0003b0 f6 18 bc 3f 4e 70 2c 3e 19 fd 3e bf 43 8f 02 c0
       1.4695117 0.16839716 -0.74604946 -2.039994
0003c0 06 f0 5e be d5 0b 30 3f 56 d4 81 bf 61 a9 93 bd
       -0.21771249 0.68768054 -1.0142925 -0.07210041
0003d0 f3 ad 8d bf 80 da 4a bf ca 2c 37 bd 50 6d 9c 3e
       -1.106871 -0.79239655 -0.04472045 0.3055215
0003e0 72 21 aa 3b e5 ea 1c 3f 44 04 a6 3f 7e 52 c1 bf
       0.0051919753 0.6129592 1.2970052 -1.51033
0003f0 42 06 cf 3f 64 1d 97 3e ca 5a aa 3e f6 0d 41 3e
       1.6173785 0.2951461 0.33272392 0.18852982

embedding_layer.embedding_layers.C3.weight f4 [59, 4]
000000 23 1e 99 3d 53 6f bf bf 40 cc 83 3f d3 6d a8 3f
       0.07476451 -1.4955848 1.0296707 1.3158516
000010 b8 91 e9 be 9f c9 1b c0 75 51 1d 3f 34 95 26 bf
       -0.45618987 -2.434181 0.6145242 -0.65071416
000020 5c 4e d7 3f a4 17 45 3e 46 48 19 3f 0f 35 f9 be
       1.6820788 0.192473 0.59875906 -0.48673293
000030 99 d7 84 3f fa f2 46 bf a2 29 4a bf 2c 01 0b 3b
       1.0378295 -0.777145 -0.78969777 0.0021210415
000040 ff d4 1e 3d 68 c6 3c 3e b9 04 94 3f 7f 4a 06 3f
       0.038777348 0.18435061 1.1563941 0.5245742
000050 c6 0d cd 3d 13 2a cd bd b7 95 60 3f 4a 8f 96 3e
       0.10012393 -0.10017791 0.87728447 0.29406196
000060 7c 93 06 3e cd 0c 56 bf 80 ee 40 3f 55 ff d5 3f
       0.13142198 -0.8361328 0.7536392 1.6718546
000070 e4 63 31 3f 75 19 4b 3f ed be e5 be 71 bc 78 3e
       0.69293046 0.7933572 -0.44872227 0.24290635
000080 c0 fe c7 bf ce 4e aa 3f 5a a7 c8 3f 31 79 9e bf
       -1.5624619 1.3305299 1.5676072 -1.2380735
000090 eb 61 b2 be 43 3d a8 bf 34 41 3d 3f 9b a8 d7 3e
       -0.3484033 -1.3143696 0.7392762 0.42120823
0000a0 86 65 d2 bf 5d 4c be 3e 11 ba ad 3e 33 4e 23 be
       -1.6437232 0.37167636 0.3393102 -0.159478
0000b0 b6 65 41 bf 7e d0 05 3f 21 e7 26 3e f5 47 e6 3f
       -0.75545824 0.5227126 0.16299106 1.799071
0000c0 7a 51 25 bd 69 5e 8d 3f 56 1b bd bd 0c d0 25 3f
       -0.040360905 1.1044437 -0.092337295 0.6477058
0000d0 e0 23 9c be e7 a6 b4 be 48 eb 4b 3f 4f ea 9a 3f
       -0.3049612 -0.35283586 0.79655886 1.2102755
0000e0 c8 81 d9 be 8c fb b6 bf fc 3d 28 3e 50 62 5c bf
       -0.42481828 -1.4295516 0.16429895 -0.8608751
0000f0 70 12 90 3f d4 71 1a c0 3a f6 23 bd 76 74 f8 3e
       1.1255627 -2.4131975 -0.04002974 0.48526353
000100 25 8a 86 3d ed 2d f1 bf 46 53 5e 3f 13 b2 0e c0
       0.06569318 -1.884214 0.86845815 -2.2296188
000110 49 49 f5 3d 28 8c d7 bf bc 68 8d bf 6f 63 cc 3e
       0.11976869 -1.6839647 -1.1047587 0.39919612
000120 37 dc 2d bf 03 27 02 c0 d4 bf ef bf a2 2c 2c 3d
       -0.67914146 -2.033631 -1.8730416 0.042034753
000130 21 b5 9c 3f dc c7 7d bf 10 fe af bf e2 4d 3e 3f
       1.2242776 -0.99133086 -1.3749409 0.7433759
000140 e1 41 fc 3e b4 e6 4b bf 46 05 ef bf 7d 5e 6f 3f
       0.49269012 -0.796489 -1.8673484 0.9350355
000150 33 73 77 3f a5 6f 6e 3f bd d3 ad be e0 1c 83 3f
       0.96660155 0.93139106 -0.33950606 1.0243187
000160 e2 d5 a7 3e 74 9b 53 bf 3d 06 a8 3f 68 f0 d1 be
       0.32780367 -0.8265908 1.3126904 -0.41003728
000170 e4 f3 ff 3f d9 88 d9 3f f9 23 54 3f 7e 20 c4 3e
       1.9996305 1.6994888 0.8286739 0.3830604
000180 13 45 36 be 7f 95 77 3e e2 62 1e bf d0 0e 5f bf
       -0.17799787 0.24178122 -0.61869633 -0.8713198
000190 e9 5e c8 3e 3f ef 4c 3f d0 f1 0b bf 28 80 65 be
       0.3913491 0.8005256 -0.5466585 -0.22412169
0001a0 86 59 d7 bf d7 c7 88 3f 9d 74 f3 bb c8 6d db 3e
       -1.6824195 1.0685986 -0.007429673 0.42857194
0001b0 b8 d7 a1 3f b7 60 7f be a4 29 aa 3c 8f c4 ca bf
       1.2643957 -0.24939238 0.020771809 -1.5841235
0001c0 2a 2a 59 c0 e0 71 79 bf e4 98 53 be 56 9f af 3f
       -3.3931985 -0.97439384 -0.20663792 1.37205
0001d0 0b fd 8a 3e ec c0 7a bf 36 be 0c 3f d3 aa 5b 3f
       0.2714618 -0.97950625 0.5497774 0.8580753
0001e0 7c 95 81 bf 0e 4b d4 be 78 86 a5 be bc 1b 0a c0
       -1.0123744 -0.41463512 -0.32329154 -2.1579428
0001f0 18 0b 05 3f 15 76 bf bf f4 8a c7 bf 8b 31 62 3f
       0.5197005 -1.4957911 -1.558928 0.88356847
000200 35 f2 fc 3f f2 76 7d 3e ba 51 1b bf 5d 14 d7 3e
       1.9761416 0.24752405 -0.6067158 0.42007723
000210 73 7f 85 bf 09 ec 2f bf 4d c7 b0 bf 64 09 40 3d
       -1.042952 -0.68719536 -1.3810822 0.046883956
000220 ea a9 d6 be 41 2e cd bf 6c cf 1a bc f7 67 e6 bd
       -0.4192651 -1.602974 -0.009448867 -0.112502985
000230 42 62 c0 bf 0d ac 1e 3f b4 10 1e 40 61 83 52 3f
       -1.5029986 0.6198128 2.4697695 0.8223172
000240 e7 36 e7 bf 9a 98 ea bf 81 f6 b6 bd fe ab 0a 3d
       -1.806363 -1.832782 -0.08933736 0.03385543
000250 4e 97 8f be f3 a9 f1 be d9 ed 18 c0 ef 0f ec 3f
       -0.28045124 -0.47199973 -2.389517 1.8442363
000260 49 cf f4 3e 63 07 34 be 3d c2 d2 3f f7 2a 9e bf
       0.47814396 -0.17580943 1.6465527 -1.2356862
000270 1e b6 52 bb 96 7d 4d bf 79 36 eb bf 84 88 40 3f
       -0.0032152007 -0.80269754 -1.8375999 0.75208306
000280 7d 1a e6 3e de fd c7 3f c8 b7 c9 be a4 03 bf 3e
       0.44942084 1.5624349 -0.39398026 0.37307465
000290 c9 68 99 bf 36 98 2f 3e aa 18 a4 bf d2 56 9d 3f
       -1.1985103 0.17147908 -1.2820027 1.229212
0002a0 06 61 c4 bf d9 44 19 bf 5a a9 ef 3d 7c 93 77 bf
       -1.5342109 -0.5987068 0.11702223 -0.9670942
0002b0 b8 19 1f 3f ae 7f 9a 3f d7 fb 1d 3e 09 00 16 3f
       0.6214862 1.2070215 0.154281 0.58593804
0002c0 9c 9b f0 3e 6e f2 c5 be 33 01 99 3d ea 6e ff bf
       0.4699372 -0.38661522 0.07470932 -1.9955723
0002d0 a2 9b a3 bf 40 1f fd 3e 65 0f df 3e 93 76 75 3e
       -1.278187 0.49437904 0.43566433 0.23971014
0002e0 a1 07 10 bf e3 07 ae bf 72 43 98 3f da df 07 be
       -0.5626164 -1.3596157 1.1895583 -0.13268986
0002f0 dc 9d fd 3f b1 e5 b2 be b8 48 ea 3e 4e a5 3a bf
       1.98138 -0.34940866 0.45758605 -0.72908485
000300 4d d0 5c 3f 2b ae 18 c0 cc 11 62 3f 30 8c 39 bf
       0.8625534 -2.3856304 0.88308406 -0.72479534
000310 bc 74 f4 be 78 b1 8e be ad 00 72 3e 70 22 62 be
       -0.4774531 -0.27869773 0.2363307 -0.2208345
000320 1e 99 05 3f 6a 25 ae bf 12 42 92 3f 10 29 e2 3e
       0.52186763 -1.3605168 1.1426413 0.44171953
000330 2e be 26 3f 8e d5 d0 be d2 86 25 be 55 c7 ca bf
       0.6513394 -0.4078793 -0.16164711 -1.5842081
000340 48 8d 89 bf 96 83 5d 3f a9 ea 8e bf 58 06 5a 3f
       -1.0746241 0.8652891 -1.1165363 0.8516593
000350 76 00 35 bd 9d 26 1e 3f 04 39 86 3f c4 b9 2c c0
       -0.044189893 0.6177767 1.048615 -2.6988382
000360 31 30 7c 3b 71 57 59 3e 42 1c a3 3e ff 93 fd be
       0.0038480873 0.21224762 0.31857497 -0.49526975
000370 d2 f6 db 3f fd d6 b6 3f 04 f1 00 bf 5d b0 ff 3e
       1.7184699 1.4284359 -0.5036776 0.49939242
000380 fe 90 09 bf 21 73 14 bf 32 61 57 bf 11 e4 c6 bf
       -0.53736866 -0.5798817 -0.84132683 -1.553835
000390 fb 83 d0 be fe bc 65 3e 8a 38 b5 bd f7 bd 47 bf
       -0.40725693 0.22435376 -0.088486746 -0.7802424
0003a0 00 9b 40 be 5f 69 9a be 37 eb 9b bf c3 2b 16 40
       -0.18809128 -0.30158517 -1.2181157 2.346421

embedding_layer.embedding_layers.C4.weight f4 [91, 4]
000000 82 85 8c bf b4 05 c8 be bc 5f 23 3e c0 a7 2a 3f
       -1.0978243 -0.3906685 0.15954489 0.66662216
000010 d2 4b 4d be 34 c1 ab 3e d7 95 ab 3f 5d 7f 69 3f
       -0.20048454 0.3354584 1.3405102 0.91209966
000020 ea 51 ea bf 3b 10 97 bf 9d ac 7b bf eb 2c ca 3f
       -1.8306248 -1.1801828 -0.9831026 1.5794958
000030 a8 45 6f 3f 24 8f af 3f 80 c7 88 3f 48 bf 76 3e
       0.9346566 1.3715558 1.0685883 0.24096406
000040 de 0e 30 be fa f6 6b bf df 00 8b be 84 ad b8 bf
       -0.17193171 -0.9217373 -0.27149102 -1.4427953
000050 64 03 39 3f 30 ec b2 bf e0 52 bc bd f1 ce 1e be
       0.722708 -1.3978329 -0.09195495 -0.1550863
000060 05 ef a1 bd e6 3a 2a ba 14 d2 d9 3e af f8 77 3f
       -0.079069175 -0.0006493762 0.4254309 0.96863836
000070 ca fc 9f 3e 56 d3 b1 be 3a 0a 34 3f a1 5f 9f bf
       0.3124755 -0.3473155 0.70328104 -1.2451059
000080 f0 03 93 be 87 38 2b 3d 00 a2 c9 bf bb 69 a4 bf
       -0.28713942 0.041801956 -1.5752563 -1.2844766
000090 bc 34 9f 3f 88 6a 3f 3f 21 3c 67 bf 09 f1 4f bf
       1.2437968 0.7477193 -0.90326124 -0.81227165
0000a0 6d 1d 30 be ec ae e7 3d 08 00 95 3d 87 61 c4 3e
       -0.17198725 0.113126606 0.072753966 0.38355657
0000b0 37 6c bf 3f 04 b2 5a bf 5a 6d 52 3f 48 45 22 3f
       1.49549 -0.8542788 0.8219811 0.63386965
0000c0 78 38 15 3f 15 c7 3d 3f db 00 98 3f 0c 42 df 3f
       0.5828929 0.741319 1.1875261 1.7442031
0000d0 ba 5a e5 3e 9b da ce be 14 76 23 bf 6e b9 94 bd
       0.4479578 -0.40401158 -0.6385205 -0.072619304
0000e0 ad d6 cd bd ed 72 8e 3f 42 13 a0 bf 7b 3c 14 bf
       -0.10050712 1.1128823 -1.2505877 -0.57904786
0000f0 53 ac bd 3f aa 67 1f 3e d5 e6 9d 3e 22 74 21 c0
       1.4818214 0.15566888 0.30840173 -2.5227132
000100 2c c7 6e bf db 74 52 3f 5b 6a c1 bb 7d e7 54 3f
       -0.9327266 0.8220956 -0.005902571 0.83165723
000110 c7 22 1c 40 6f 5e e6 3e f3 02 f6 be 8d 68 8f bf
       2.4396226 0.44993922 -0.48049125 -1.1203781
000120 e7 4f 07 3e 02 9e 3c 3f 28 92 40 be 50 a8 c2 3f
       0.13214074 0.736786 -0.18805754 1.5207615
000130 f0 a2 b2 be 95 54 c6 be 4c 12 c9 3e 7e 87 ee 3f
       -0.34889936 -0.38736406 0.39271772 1.8635099
000140 91 a4 05 3f 79 6e ce bf 7e 83 f0 3e 97 ea b1 be
       0.52204233 -1.6127464 0.4697532 -0.3474929
000150 a0 a9 5a bd 62 c2 8f 3f 53 fe ef bf 24 3e a6 bc
       -0.053384423 1.1231196 -1.8749489 -0.020293303
000160 86 67 10 3e cb 6c 97 3f 87 9c 98 be 14 21 ab 3e
       0.14101991 1.1830076 -0.2980692 0.33423674
000170 18 31 9e 3e bf e1 08 bf d2 1c 16 bf 1f 1a 1c 3e
       0.3089683 -0.5346946 -0.58637726 0.1524434
000180 93 0d 1d bf 29 d2 ef be 1b 28 bb 3f 7e ca dd 3e
       -0.6134884 -0.46840027 1.4621614 0.43318552
000190 cf 0c ac ba 03 15 92 3e 25 36 ac bf b0 83 12 3f
       -0.0013126376 0.28531656 -1.3454024 0.5723219
0001a0 60 1b ba be c5 d8 6e be 53 23 bb be 16 90 62 3f
       -0.3634901 -0.23324879 -0.36550388 0.8850111
0001b0 76 92 5f 3f 1c 8c 2e bf d3 78 8f 3f e3 ef 16 3f
       0.87332857 -0.6818254 1.1208748 0.5895979
0001c0 5e 69 a5 3f e6 f4 d3 be 72 bf 23 bf f3 0d 8c 3e
       1.292278 -0.4139778 -0.63964 0.27354392
0001d0 fc 47 43 bf 8a 9c 49 3f f5 12 4b 3f 51 a1 36 3e
       -0.76281714 0.78754485 0.793258 0.17834975
0001e0 1e ec 61 be 79 a7 7e 3f 9b 92 ce 3e c2 33 00 3f
       -0.22062728 0.99474293 0.40346226 0.50078976
0001f0 06 bb 46 3f 36 b4 9e bf ac 53 cc 3e d0 3f d7 bf
       0.77629125 -1.2398746 0.39907587 -1.6816349
000200 1f 46 94 bf f9 f2 fd be 79 19 93 be f7 40 46 3f
       -1.1583899 -0.49599436 -0.28730372 0.7744288
000210 80 82 19 bf ab c5 10 be 14 51 88 3e f6 36 55 be
       -0.5996475 -0.14137904 0.26624358 -0.20821747
000220 4a 27 13 bf aa 8d 8f 3f 6a 35 39 3f 7b 8a 33 bf
       -0.57481825 1.1215107 0.7234713 -0.7013318
000230 65 0a 7a bf 5d f7 fb bf e9 b8 52 bf fc c1 51 bf
       -0.9767211 -1.9684864 -0.823134 -0.8193662
000240 5b 2c 3f 3f 74 ea 5c 3f 77 76 71 3f 28 10 e1 bd
       0.74677056 0.8629525 0.9432139 -0.1098941
000250 54 98 19 3f 41 f1 a1 3f 80 95 e2 be 3b 3a 15 3f
       0.5999806 1.265175 -0.44254684 0.5829198
000260 3c 96 30 3e 1b 3c d9 3e 92 17 0d 3e 5a 7a 06 3f
       0.1724481 0.4242867 0.13778523 0.52530444
000270 0b 11 0c bf bf b1 8f bf ed 0c 86 3f 5d fe be be
       -0.54713506 -1.1226119 1.0472695 -0.3730344
000280 da 50 52 bf 1f a0 59 be 39 4e 26 3d 22 af 4a bf
       -0.8215462 -0.21252488 0.040601943 -0.7917348
000290 0e 34 e7 be fe 3a 9f bf 9a 09 21 bf 8b 69 7b 3e
       -0.45156902 -1.2439878 -0.62905276 0.2455198
0002a0 e0 16 8b 3f 75 72 96 bd 6c 1b 1b bf ac 9c 1a 3f
       1.0866356 -0.0734605 -0.6058872 0.6039531
0002b0 56 6a 13 3f e7 08 0b 3e 6a 9f 4f bf 61 f1 b4 bf
       0.5758413 0.13577615 -0.8110262 -1.4136163
0002c0 5a ea cf 3e 29 70 a6 be ab 50 b7 bf ef 0e ff bf
       0.40608484 -0.32507446 -1.4321493 -1.9926432
0002d0 14 e9 b8 be 18 a5 35 3f a3 d4 5c 3f 22 49 65 3f
       -0.36115324 0.7095504 0.8626196 0.89564717
0002e0 10 21 27 3f e0 a8 9b bf f9 38 b0 bc d2 f3 2e 40
       0.65284824 -1.2160912 -0.021511542 2.7336316
0002f0 15 91 a6 be eb 41 23 3f 1c 7b 52 be ec 13 1f c0
       -0.32532564 0.6377246 -0.20554775 -2.485591
000300 57 40 92 bf fe d7 95 bf 06 ee 1b c0 70 f9 8e 3f
       -1.1425885 -1.170654 -2.4364028 1.1169872
000310 16 00 6c bf 64 9e a9 3f bf d1 81 bf 8f 27 26 bf
       -0.9218763 1.3251462 -1.0142134 -0.6490411
000320 25 4c 88 bf 33 1e f0 bf 56 30 e0 bf 4f 53 e4 be
       -1.0648237 -1.8759216 -1.7514751 -0.4459481
000330 0e 66 ff be f1 84 1e bf 1b dc 74 3f 12 e3 4c 3f
       -0.4988255 -0.619216 0.95648354 0.8003398
000340 b4 2c 0f bf 21 80 bc bf 76 60 ff be bb a9 7d bf
       -0.55927587 -1.4726602 -0.4987828 -0.99087113
000350 33 03 73 bf 37 50 78 3e fd 81 1f 3f f3 91 78 3e
       -0.94926757 0.2424935 0.6230772 0.24274425
000360 c7 47 6a 3e 3a fb 9e bb 9f ca 55 3e 68 1e 0f bf
       0.22878943 -0.004851726 0.20878075 -0.5590577
000370 f6 17 80 3f 82 8e 9e bf 8c 40 b1 3d 85 58 e9 be
       1.0007312 -1.238724 0.086548895 -0.45575348
000380 01 06 ae bf 20 08 c7 3f 93 7c 6a 3f 21 cf 78 3f
       -1.3595582 1.5549355 0.91596335 0.97191054
000390 d3 b1 aa 3e 8b 8f 77 be ae 37 88 bd 7b a5 fe 3e
       0.33338794 -0.24175851 -0.06651245 0.49735627
0003a0 bf 65 08 c0 c4 41 22 3f ce 33 e6 3e c6 c4 38 be
       -2.13121 0.633816 0.449614 -0.18043813
0003b0 66 13 eb be ab f2 b6 be e0 3c 67 bf b0 88 e6 3f
       -0.45913237 -0.35732016 -0.9032726 1.8010464
0003c0 ad f4 cf 3f ab 5d ea be 32 b2 8e 3f b5 91 63 bd
       1.6246544 -0.45774588 1.1148131 -0.05555888
0003d0 e3 74 80 3f d9 f4 6d bf ab a5 78 3e 8b 11 f4 be
       1.0035671 -0.9295173 0.24281947 -0.47669634
0003e0 eb fa df be 65 b0 d0 3f d0 e1 cd be c3 6c 9f bf
       -0.43746123 1.6303831 -0.40211344 -1.2455066
0003f0 59 90 ab 3f 08 c5 3b 3f c5 3f e8 3e 04 27 22 3e
       1.3403426 0.7334752 0.45361152 0.15835196

embedding_layer.embedding_layers.C5.weight f4 [17, 4]
000000 1b 1d 4a bf 53 e3 40 3f 48 06 31 bd ea 5e b1 3f
       -0.7895066 0.7534687 -0.04321888 1.385709
000010 48 7a 67 3f e4 bf a9 be 77 4e 33 bf 3b 0d 3d 3f
       0.9042096 -0.33154213 -0.700416 0.73848313
000020 0e 07 8c be e4 f5 17 3e 7a d1 fc 3f 74 7c 39 3f
       -0.27349132 0.14839894 1.9751427 0.72455525
000030 37 01 91 3b 95 95 4b be e5 be a7 bf 78 f4 81 bf
       0.0044251936 -0.1988128 -1.3105131 -1.0152731
000040 4c de 99 be 06 58 7a bf a1 ba 07 40 55 f1 f3 3f
       -0.30052412 -0.97790563 2.120766 1.9058024
000050 ed 7b d6 be 1f 1b 07 bf 4a 87 55 bf 1d 21 c9 3f
       -0.41891423 -0.5277576 -0.8340956 1.571323
000060 bb f8 6e bf 08 c8 dc 3e 92 4d a7 3e f3 5f a3 3f
       -0.9334828 0.43121362 0.3267637 1.2763656
000070 f0 0a 93 3f 56 a7 56 3f 6c a7 8a 3f a0 95 dd be
       1.1487713 0.83849084 1.0832343 -0.43278217
000080 a9 6d d0 3f 9d f9 98 bf 1e 32 d9 3e 95 75 18 3e
       1.6283466 -1.1951176 0.4242105 0.14888604
000090 93 75 cb 3d 2b 85 af be be 10 88 3f a8 a4 68 bf
       0.09934535 -0.34281287 1.0630109 -0.90876245
0000a0 1a 5a 3d 3d 7a 5d cf 3f 46 e1 7d 3f 17 87 8d be
       0.046228506 1.6200402 0.99171865 -0.27642128
0000b0 06 17 23 3f a6 e9 91 be 75 49 47 3f 2e fc e1 3e
       0.63707006 -0.28498572 0.7784646 0.4413771
0000c0 aa 47 b6 bd 09 a3 b1 be 9f 5d ca bd b3 4f 9f 3d
       -0.089003876 -0.34694698 -0.09881138 0.07778873
0000d0 2d cd 0f 40 b1 25 1a bf 5b 78 86 be fe 97 28 c0
       2.246898 -0.6021376 -0.262637 -2.6342769
0000e0 3c 01 97 bf 1b b4 5f bf 26 46 68 3f 51 a8 56 bf
       -1.1797252 -0.87384194 0.9073204 -0.8385058
0000f0 88 d0 f5 be 52 c7 b8 3c 18 9a 2f 3e 2d 03 a8 bf
       -0.4801066 0.02255598 0.17148626 -1.3125969
000100 64 1e 5d bf 53 5a ce 3f c8 6b 6c bf 69 83 a1 be
       -0.863745 1.6121315 -0.9235196 -0.3154557

embedding_layer.embedding_layers.C6.weight f4 [7, 4]
000000 33 60 c1 3e 9b 44 bb 3e c1 ef c5 be 6e 56 a2 3f
       0.37768707 0.3657578 -0.3865948 1.2682626
000010 80 01 a8 3e 47 fd 0d bf 00 20 f3 3e 26 9c 6e 3f
       0.32813644 -0.55464596 0.47485352 0.93207014
000020 b2 ea dc bc 69 2c 2b bf 74 16 a5 be 0b d2 8f be
       -0.02696738 -0.6686464 -0.32243693 -0.28089938
000030 bc b5 bf be f3 19 89 be d7 8d 3e 3f 33 3d a6 3f
       -0.3744334 -0.2677761 0.7443518 1.2987427
000040 78 8d f7 3e 36 d0 54 3f 9e f3 5c 3d 10 4d 9c 3f
       0.4835012 0.83130205 0.05394327 1.2211018
000050 2d ab 07 3f c4 2d 7d 3f 7b d9 98 3e ab 64 7e bf
       0.5299557 0.9889796 0.29853424 -0.9937236
000060 66 50 ae 3f d8 61 ad 3e f6 05 fb 3e bc d2 eb bd
       1.3618286 0.3386371 0.49027985 -0.11514804

embedding_layer.embedding_layers.C7.weight f4 [173, 4]
000000 49 84 20 3f 52 c3 bb bf 2f c7 be 3f f0 30 35 c0
       0.6270185 -1.4668982 1.4904536 -2.831112
000010 f9 21 6c 3f fa 17 05 bf 75 3c 85 bf 95 ab 26 3f
       0.9223934 -0.5198971 -1.0409075 0.65105563
000020 61 bd 79 3f 30 88 9d 3f bf 06 c9 3d 89 4d 3b 3e
       0.97554594 1.2307186 0.0981574 0.18291296
000030 eb db 64 be 91 f4 5b bf 41 05 6f bf fd c5 03 3f
       -0.22349517 -0.85920054 -0.9336739 0.5147398
000040 01 3d d5 3e 0c eb 5e be f4 d4 72 bf 32 8b 86 3f
       0.41648105 -0.21769351 -0.9485619 1.0511229
000050 31 6f 09 bd 72 85 3e bf a7 ba 8d bf 44 85 db bf
       -0.033553306 -0.7442237 -1.1072587 -1.7150044
000060 90 b2 97 3e 0a f6 8f 3e 3f f7 95 3e 75 13 37 3f
       0.2962842 0.281174 0.29290196 0.71514064
000070 77 42 92 be 14 f5 b7 bf 2c 73 25 3e 1e fb 3c 3e
       -0.28566334 -1.4371667 0.16157216 0.18455169
000080 f1 13 1f c0 1d ad e2 be 6e 2b e9 bc f1 f6 98 be
       -2.4855921 -0.442727 -0.028463092 -0.298759
000090 0b 3c 39 3d 49 72 f1 3f 80 e7 82 3f b9 06 a2 3e
       0.045223277 1.8863002 1.0226898 0.31645754
0000a0 5f a6 32 3f a4 56 a2 bf 8d 02 57 3e 27 5b ce 3e
       0.6978511 -1.2682691 0.20997067 0.4030392
0000b0 c0 68 d7 bd f9 bb ca bf 72 f1 9f 3e 81 6f a6 bf
       -0.10518026 -1.5838615 0.31238896 -1.3002778
0000c0 3a dc 97 3f ee 38 89 bf 0b 7f bf 3f 7b a1 c3 3f
       1.1864083 -1.0720499 1.4960645 1.5283655
0000d0 b7 d8 ba bf ba 1c 8f bf 1a 8b a5 bf bb 00 21 bf
       -1.4597386 -1.1180642 -1.2933075 -0.6289174
0000e0 d5 d5 9c be 6c 19 b0 bf 2b 15 f5 3e 21 d1 a7 3e
       -0.3063189 -1.3757758 0.47867712 0.3277674
0000f0 ac 9d c9 bd a6 fb 24 bf 3f 49 1d 3f 9e 44 e2 be
       -0.09844527 -0.64446485 0.6143989 -0.44192976
000100 fd dd 63 be d7 54 ce 3e 72 71 77 3f fa 18 b6 be
       -0.2225265 0.40299103 0.9665748 -0.3556593
000110 d5 45 0c 40 6a e4 c7 3e c7 d7 76 3f 50 4b f4 bc
       2.1917622 0.39041454 0.96423 -0.029821068
000120 a3 c5 42 bf 8a ba 12 3f 4a 1a c2 bf 03 0c 1a 3e
       -0.7608282 0.57315886 -1.5164273 0.15043645
000130 7c 3a 44 3f 0e 75 d9 3f b7 2b 4b 3c af 55 ca 3e
       0.7665174 1.6988847 0.012400559 0.39518496
000140 3f 7f 55 3f f9 7d d9 be 0f 9a 2c 3f 61 e7 e9 bd
       0.8339729 -0.42478922 0.67422575 -0.11421085
000150 33 fa 3a be a2 a6 94 bf 0f 2a 0c c0 f2 d9 b4 be
       -0.18259506 -1.1613352 -2.190067 -0.3532253
000160 98 8f e3 3d ad e8 8a bf 79 d1 4f be 5d df 85 be
       0.11111373 -1.0852257 -0.20294751 -0.26146975
000170 2e 9d 81 bf 5a 4e 23 3f 66 c2 98 3f f1 35 b0 be
       -1.0126092 0.6379143 1.1934326 -0.34416154
000180 0e 2d a2 bf bc 1b 6a bf f0 74 d2 3e a7 71 b6 be
       -1.267 -0.9144857 0.4110484 -0.35633585
000190 fc e6 c3 3d 1c 66 bf 3f fc 1c 12 3f df af f5 3e
       0.09565541 1.4953036 0.57075477 0.47985741
0001a0 88 d3 1f 3f c2 4d 0f bf 44 64 9f bf 76 4d 95 3e
       0.62432146 -0.55978024 -1.2452474 0.2916066
0001b0 cd 86 15 3f 24 a5 99 3f 2b ba 21 bf 9e 73 52 3e
       0.58408815 1.2003522 -0.63174695 0.20551917
0001c0 41 1a 15 bf 46 24 e8 3e 81 a8 15 3f db c9 b4 3e
       -0.58243185 0.45340174 0.5846024 0.35310254
0001d0 7f 38 c9 3f 8c 7b 5d bf 22 a7 21 bf c7 86 05 be
       1.5720366 -0.8651664 -0.6314565 -0.13039695
0001e0 59 32 88 bf 76 34 85 bf 5b 30 7f 3d 8c 10 07 3f
       -1.0640365 -1.0406635 0.062301975 0.52759624
0001f0 1d d5 1e 3e 7d 9a 2e bf ca c7 91 bd 37 33 66 bf
       0.15510984 -0.6820448 -0.07118185 -0.899219
000200 de ad 0a bf db 6f 52 be 5a 45 b9 bf 9f ac 88 bf
       -0.5417155 -0.20550482 -1.447429 -1.067768
000210 c9 b3 7b 3f ea a1 0b bf b3 42 a5 3f 8e 0d a7 3e
       0.98321205 -0.54543936 1.291098 0.3262753
000220 9b ba 45 3f 75 a9 b2 3f b9 e5 1d 3f c5 fc 6b be
       0.7723786 1.3957964 0.61678654 -0.23045643
000230 8c 05 5e bf ef ec 24 3f 3c b4 92 be 06 71 8b 3f
       -0.86727214 0.6442403 -0.28653133 1.0893867
000240 13 7f 8b 3f ec 71 0f c0 db 4c b9 3e 50 4a 5a 3f
       1.0898155 -2.2413282 0.3619145 0.8526964
000250 83 ff a7 be ce a4 55 bf a2 70 29 bf cd 17 b2 bf
       -0.32812127 -0.83454597 -0.6618749 -1.3913513
000260 eb 62 d7 bf 6e 2b 92 3e d0 7e 9e bf 58 ff 0a be
       -1.6827062 0.2854876 -1.238245 -0.13573968
000270 29 58 06 3f ba 35 cb 3f 45 3a 6b bf 5b e0 90 bf
       0.5247827 1.5875771 -0.9188579 -1.1318468
000280 30 fc b4 3e 37 d6 e4 be f9 b4 a0 3f 8c 05 e5 3f
       0.35348654 -0.44694683 1.2555228 1.7892318
000290 64 e3 8b bf 85 ef 80 3f b2 3f e1 3f f5 04 27 bf
       -1.0928769 1.0073096 1.7597563 -0.6524194
0002a0 b0 4b 9f bf c1 d0 80 3e 83 8c 25 3f b9 dd c9 bf
       -1.2444973 0.25159267 0.6466753 -1.5770789
0002b0 58 08 db bd 88 bd 0e 3e c8 dd b0 bf b5 0c 39 c0
       -0.10694951 0.13939488 -1.3817682 -2.8914006
0002c0 23 61 13 3f f2 8f f5 be f2 6d bc 3f 9b 0c d1 3e
       0.57570094 -0.47961384 1.4721053 0.4082993
0002d0 ce e9 8d bf cc 99 2a bd e0 93 8f 3f 99 56 13 bf
       -1.1086977 -0.04165058 1.1217003 -0.5755401
0002e0 1b 81 db 3e 12 6d 01 bf 3b 67 0a 40 fb bc e0 3e
       0.42871937 -0.50557053 2.1625507 0.4389418
0002f0 10 c8 3e 3f 2d 85 a8 bf 67 24 0b bf ae ab 45 bf
       0.7452402 -1.3165642 -0.5435242 -0.7721509
000300 21 93 3d 3f fc 09 b3 be 16 f7 36 bf 5f 19 01 3e
       0.74052626 -0.34968555 -0.71470773 0.12607335
000310 02 41 ad bf 5a 6e 54 3e d3 17 bd bf 2a 72 6e 3e
       -1.3535464 0.20745221 -1.4772896 0.23285738
000320 c1 ae f1 bf 20 26 ee 3f a6 c5 0c 3f 9b 25 e1 bf
       -1.8881456 1.8605385 0.5498909 -1.7589601
000330 64 92 90 be f3 84 90 3e ae 90 6b 3f fa 8f 10 3f
       -0.28236687 0.28226432 0.9201764 0.5646969
000340 c9 85 db 3e c9 54 08 c0 e1 9a 0b bf 4f 64 5b 3e
       0.42875507 -2.1301749 -0.545332 0.21424983
000350 1a d9 22 c0 ed 47 a6 be ad 12 2d bf 25 69 cc 3f
       -2.5445008 -0.3247675 -0.6760662 1.5969588
000360 02 e9 15 c0 b1 83 a3 bf 08 98 83 3e 32 56 29 be
       -2.3423467 -1.2774564 0.25701928 -0.16536787
000370 46 81 c5 3e 0d 6f 45 be 10 df 28 3e bd 26 2a 3f
       0.3857519 -0.19280644 0.16491342 0.6646536
000380 b2 23 ac 3f 63 36 5f 3e df 63 a4 3e c6 08 95 3d
       1.3448393 0.2179809 0.32107446 0.07277064
000390 e4 85 ef 3e 5f 9d 09 3f f1 7f 48 bf d5 ee 38 be
       0.46781838 0.53755754 -0.78320223 -0.18059857
0003a0 f6 c5 e3 3e 99 e9 21 3f 3e 2f 09 3e 8b 78 09 40
       0.4448697 0.63247067 0.13396928 2.1479824
0003b0 44 35 ff bf ca f8 de be 74 4e 87 bf de a6 e2 3e
       -1.993813 -0.43549186 -1.0570817 0.44267935
0003c0 f0 a0 0a 3f c3 7e ab 3f d7 60 09 bf c0 11 8d be
       0.5415182 1.339806 -0.5366339 -0.27552605
0003d0 f2 ae 52 be 82 9f b0 3f 7d e6 2b bf 93 00 e3 3e
       -0.20574549 1.3798678 -0.6714857 0.44336376
0003e0 f8 ff 7c bf 0e 8f 98 bf dd f5 86 bf 8d 9f b0 3e
       -0.9882808 -1.1918657 -1.0543782 0.34496728
0003f0 48 5d 9c be 67 b0 65 bd 88 66 39 3f 08 68 9b be
       -0.30539918 -0.056076434 0.72422075 -0.30352807

embedding_layer.embedding_layers.C8.weight f4 [24, 4]
000000 22 69 8d be a3 85 f2 3e 4f 08 01 bf fb 29 80 3f
       -0.27619272 0.47367582 -0.504033 1.0012811
000010 96 9a ea 3e 57 c3 9e bf 41 eb 33 be 0a 83 0d bf
       0.45821065 -1.2403363 -0.17570211 -0.55278075
000020 9c e0 07 3f ee 01 bc bf 69 ad 52 3f 3f f8 81 bf
       0.530771 -1.4688089 0.8229585 -1.0153884
000030 5a c4 8a 3f 46 2f 81 3c fd 28 d0 be 8f 7e a0 bf
       1.0841172 0.015769612 -0.40656272 -1.2538623
000040 6d b4 69 bf 16 b1 d1 3d 65 cd 06 bd 46 62 4c 3f
       -0.9129093 0.102388546 -0.032910723 0.79837453
000050 53 8a 42 bf d3 22 2d be aa 6d 7c 3f da ae d0 be
       -0.75992316 -0.16907816 0.98604834 -0.407584
000060 ec 8a 04 40 52 7d 91 bf db 98 af 3f 8f fa 7f be
       2.070979 -1.136637 1.3718523 -0.24997924
000070 4f d6 70 bf 85 40 22 be 73 d6 61 bf 85 e8 97 3d
       -0.9407701 -0.15844925 -0.8821785 0.074173965
000080 39 b7 15 3f 4b c7 dc 3e b7 32 34 3e fe 89 50 3f
       0.584827 0.43120798 0.17597471 0.8146056
000090 4c 13 5a bf 1c ae 13 3f 39 b8 df bf d9 61 dc be
       -0.85185695 0.57687545 -1.7478095 -0.43043402
0000a0 c0 5e e5 3f 06 cf cb 3f 82 37 cf 3d fd 30 d8 be
       1.791954 1.5922554 0.10118009 -0.42224875
0000b0 6f 4c 03 3f 20 03 b2 be 82 64 5b 3f 10 0b 72 bf
       0.51288503 -0.3476801 0.8570024 -0.9454813
0000c0 c7 7c 19 40 23 b5 76 bf 78 e8 fa 3e 9a f5 a1 3e
       2.3982408 -0.9637014 0.49005485 0.31632692
0000d0 69 3a d8 bf 12 1e 1b 40 4f 3a 21 3f 65 07 b2 be
       -1.6892825 2.4237103 0.62979597 -0.34771267
0000e0 ee 6e ba 3f 32 4b 8d be 77 fa 8e 3f 1a 51 71 be
       1.4565103 -0.27596432 1.1170186 -0.23566094
0000f0 06 1f a2 bf 10 82 d7 3f 52 3a ad 3e 68 16 04 bf
       -1.2665718 1.6836567 0.33833557 -0.5159669
000100 e1 09 93 be c9 e0 53 bf 15 ca d8 be 4f ec 89 3f
       -0.28718475 -0.8276487 -0.42341676 1.0775241
000110 a9 bf 98 bf 4f ef 42 bf bd 9d df be 09 80 f5 3d
       -1.193349 -0.76146406 -0.43675032 0.119873114
000120 8c 67 86 be 78 a2 21 c0 36 cf 33 bf d2 0a a0 3c
       -0.26250875 -2.5255413 -0.70238054 0.01953641
000130 cd 86 3d 3f aa 1d 82 3f 3b 4c a6 3e 16 68 15 c0
       0.74033815 1.0165303 0.32480034 -2.334478
000140 6f f8 77 be e5 d9 6e 3f 05 c7 04 3e ac 41 54 3e
       -0.24215864 0.9330123 0.12966545 0.20728177
000150 29 b9 b1 bf 71 ab 0d 3f 31 70 65 3f 8e cc cc 3e
       -1.3884631 0.55339724 0.89624316 0.39999813
000160 8c 02 99 bf 94 b3 16 bf a9 fa ca 3e 59 f8 45 bf
       -1.1953902 -0.58867764 0.39644364 -0.77332073
000170 91 2d bc 3f 6f f2 10 3f 14 5a 2d 3e 70 97 18 bf
       1.4701406 0.56619924 0.16928893 -0.59606075

embedding_layer.embedding_layers.C9.weight f4 [3, 4]
000000 a9 dc a6 3e e7 e3 0e 3f e6 c0 6a bf 6a 01 38 c0
       0.32590225 0.558165 -0.9170059 -2.8750863
000010 60 55 ea bf dd 34 00 40 eb 71 f3 3d fc 38 2a 3f
       -1.8307304 2.0032265 0.118869625 0.664932
000020 80 a4 58 3f ef 6a 9d 3f 0f a0 fa bf be 45 4f bf
       0.8462601 1.2298259 -1.9580096 -0.80965793

embedding_layer.embedding_layers.C10.weight f4 [102, 4]
000000 6e 9d 0b be e7 ec 8e 3f 56 7a 76 bf ba c7 1d 3f
       -0.13634273 1.1166047 -0.9628042 0.61632884
000010 7b 4f 95 3f 46 fb 88 3f 35 4e c1 3d e2 df cd 3e
       1.166488 1.0701683 0.09438745 0.40209872
000020 bf c8 ea be f6 e7 c1 3f bc dc 82 bf 30 18 f8 bf
       -0.45856282 1.5148914 -1.0223613 -1.9382381
000030 a9 86 3e 3e c6 df 3f 3f 37 64 3d 3f 06 2a b8 3e
       0.18606056 0.74950826 0.7398104 0.3596956
000040 c1 3f 09 bf 6b 09 d2 bf b7 02 f6 3d d0 5e 85 bf
       -0.53612906 -1.6409124 0.120122366 -1.041956
000050 15 28 48 bf 4e 01 dd bf 58 c6 51 bf e8 08 b7 3f
       -0.7818616 -1.7266023 -0.81943274 1.4299593
000060 af 96 66 3f e1 7e 6f bf bc 09 d2 bd 8b ac 2c 3f
       0.90073675 -0.93552977 -0.10255763 0.6745078
000070 7e 1b 36 3f 94 07 b2 bf 84 08 c9 bf 98 03 a6 3d
       0.711357 -1.3908563 -1.5705724 0.08106154
000080 2c 02 d0 be 1c 15 a0 be 98 05 58 3f 29 89 58 bf
       -0.40626657 -0.31266105 0.84383535 -0.8458429
000090 90 c6 f7 3d 6d 0f d3 bf b2 4e 2c bf 47 54 8a bf
       0.1209842 -1.6489083 -0.6730758 -1.080697
0000a0 e9 76 9f 3f d9 0b 83 be 58 16 9c 3f 8c 2e 64 3d
       1.2458163 -0.25594977 1.2194319 0.055708453
0000b0 15 f1 1d bf 1f 3b ee 3f a4 f6 33 3f 83 11 a1 3d
       -0.61695987 1.8611792 0.7029822 0.07864668
0000c0 12 4a 64 bf b8 48 b4 be 50 6f c2 be 9b 6b 6f be
       -0.8917552 -0.3521173 -0.3797555 -0.23380892
0000d0 39 f1 3d 3f ac c9 86 3e 7f c1 c3 3e b4 d7 0b bf
       0.741962 0.26325738 0.38233563 -0.5462601
0000e0 5a bc 01 3f 6f 20 08 bf 6e c2 6e bf 55 9d 87 bf
       0.50678027 -0.5317449 -0.93265426 -1.0594889
0000f0 21 c5 8e be b8 b6 20 40 24 4a d2 bf 73 9f 98 bf
       -0.27884772 2.5111523 -1.6428876 -1.192366
000100 66 85 f6 bf bb 53 10 3f 0d 62 e6 3f 8c 3d c4 3d
       -1.925946 0.5637776 1.7998673 0.09582052
000110 15 68 9a 3e ed 72 a1 be 23 c9 ed be 2e f7 8c be
       0.30157533 -0.31532994 -0.46442518 -0.27532333
000120 17 ef b1 3e 9c 8a f7 3e 0e 6d e7 3f 26 15 9d 3f
       0.34752724 0.48347938 1.8080156 1.2272079
000130 76 4a 07 bd 7e 8b 19 3e 40 39 90 3e 8d 16 4d 3f
       -0.033029996 0.14994618 0.28168678 0.80112535
000140 e4 04 bb 3f 1d e3 a4 bf 0e 18 ea bf ed 30 2a 3f
       1.4610868 -1.288181 -1.8288591 0.66480905
000150 74 1e be be c4 7d df bd d3 40 6c bf 0f 10 dd bf
       -0.3713261 -0.1091266 -0.92286414 -1.7270526
000160 f8 5d c4 3f 85 d5 21 bd 8c f2 3e bf cf cb 5f 3f
       1.5341177 -0.03951027 -0.7458885 0.8742036
000170 4b bb 26 bf 33 c8 eb 3d 62 41 58 3f 86 fb 1e bd
       -0.65129536 0.11512794 0.84474766 -0.03881409
000180 72 4e 8c bc fb 39 a1 bf fd 24 2f be fb 72 27 3f
       -0.01712725 -1.2595819 -0.17103954 0.6540982
000190 91 52 11 c0 7d 5c aa be 75 68 72 bf 62 d9 b9 be
       -2.2706645 -0.33273688 -0.9469064 -0.36298662
0001a0 e4 a3 68 3f 14 05 46 3d 0b c8 a5 be 52 ce 36 bf
       0.9087508 0.048344687 -0.32379183 -0.7140857
0001b0 1e 7d 8f bf 1e dd b5 3d 83 88 3f be a6 c9 ac be
       -1.1210058 0.088800654 -0.18704419 -0.33747596
0001c0 5d 26 20 c0 6c 26 fa 3e 70 3c e1 3f 2a 10 8d 3e
       -2.5023415 0.4885744 1.7596569 0.27551395
0001d0 52 e1 a3 3e 01 df 1c be ca c5 17 40 b4 e5 50 be
       0.32007843 -0.15319444 2.371447 -0.20400125
0001e0 68 f8 8d bf a6 51 96 3e f8 f1 42 bf 0b 45 22 3f
       -1.1091433 0.29359168 -0.76150465 0.633866
0001f0 b7 9f 63 bd a2 61 60 3f 7e fc f0 3e f1 98 db bf
       -0.055572238 0.87648976 0.47067636 -1.7156049
000200 15 73 0c be 31 4e cf 3f 58 0f d0 3f 39 d0 73 3f
       -0.13715775 1.6195737 1.6254683 0.952396
000210 4b 6b bf 3f 40 66 e7 be db 47 41 c0 c4 ff 93 3d
       1.4954618 -0.45195198 -3.0200107 0.07226518
000220 0a 20 03 c0 52 e3 c7 3e 32 44 6c 3f 8f d2 2c bf
       -2.0488305 0.3904062 0.9229156 -0.67508787
000230 6b 61 93 3f a2 7b a9 3d 88 b9 85 bf 86 bf dc 3e
       1.1514105 0.08275534 -1.0447245 0.4311487
000240 45 17 34 be ff 08 b5 bf 2f c4 d2 3f b8 38 1c 3f
       -0.17587002 -1.414337 1.646612 0.61024046
000250 ef 6b a5 3f 12 d1 3e 3f 24 07 87 be b6 e9 df bf
       1.2923564 0.74537766 -0.26372635 -1.7493198
000260 e4 80 73 bf 31 73 3e 3f 73 12 6b bf d8 a7 7f bf
       -0.95118546 0.7439452 -0.91825026 -0.99865484
000270 51 0d 96 3f ef ca 0c 40 ef aa 8d 3e 90 57 15 3f
       1.1722814 2.199886 0.27669474 0.58336735
000280 f9 2a 2f 3f ee e4 85 3f 9c 18 e9 3d 11 a5 75 be
       0.68424946 1.0460489 0.11381647 -0.23988749
000290 ae 66 ff 3f 81 0c d4 3f a7 e5 b6 3f 19 7d a9 bf
       1.995321 1.6566316 1.4288834 -1.3241302
0002a0 39 5b d2 3e d0 3b 10 bf f5 30 e1 be 66 25 c7 3e
       0.41085222 -0.56341267 -0.43982664 0.3889572
0002b0 a8 d5 02 3f 49 a1 d7 bf fd 3d db 3f 15 a4 08 bf
       0.51107264 -1.6846095 1.7128292 -0.5337537
0002c0 6f fa ec 3d ee 92 7b bd 3a 6d 35 bf c4 5d dd 3f
       0.11571204 -0.06141942 -0.7086979 1.729424
0002d0 59 63 cf bf 4b b7 5b bf 7c 96 2a bf e8 31 66 3e
       -1.6202193 -0.8582656 -0.6663587 0.22479975
0002e0 fd 04 c3 3e e2 c7 42 bf 9c 40 15 bf f4 c1 bf bf
       0.38089743 -0.76086247 -0.5830171 -1.4981065
0002f0 90 33 58 bf 25 5d b0 bc df af 7e bf d2 a3 90 be
       -0.8445368 -0.02152879 -0.9948711 -0.28249985
000300 9b cc b6 3f e0 fe 98 bf 4e e4 99 3e a1 0a 05 bc
       1.4281191 -1.1952782 0.30056995 -0.00812021
000310 fc a9 f7 be ea 60 1e bf 6c 7f 12 bf 06 b6 a9 3f
       -0.48371875 -0.6186663 -0.5722568 1.3258674
000320 d6 4c 2c 3f 96 d2 77 bf 33 4a 72 bf da c4 89 3e
       0.6730474 -0.96805704 -0.9464447 0.26907998
000330 82 44 78 3e 5d 9c 01 3f 9b f5 c0 bf c8 95 bc bf
       0.24244884 0.50629216 -1.5074953 -1.473321
000340 df a1 a4 3e 7c e9 e1 bf 99 45 16 3d 9a 4d b6 3e
       0.32154748 -1.7649379 0.036687467 0.3560608
000350 90 31 8a bf ed b4 fc be a9 26 9a be f5 11 b5 3f
       -1.0796375 -0.49356785 -0.3010762 1.4146105
000360 d4 29 b3 bf 11 9f ee 3e a8 d3 1f bf 86 c5 82 3e
       -1.399714 0.46605733 -0.62432337 0.25541323
000370 e1 c8 08 bf 22 07 1b 40 19 f4 67 3f 99 a7 7d 3f
       -0.53431517 2.4223104 0.9060684 0.9908386
000380 92 66 80 3e 2f 66 9c 3f 40 d0 c0 bf be f9 0b be
       0.25078255 1.2218684 -1.5063553 -0.13669488
000390 01 e2 1a bf 27 a0 e8 3f 14 43 67 bf 61 f9 94 bf
       -0.60501105 1.8173875 -0.9033673 -1.1638604
0003a0 c7 13 44 3f 5a 20 15 be 1e e7 ba 3e fc 97 9c be
       0.7659268 -0.14563122 0.36504453 -0.30584705
0003b0 ed 1f e1 3e 45 e6 9c bf ca 61 4e bf 4c 69 d5 3e
       0.4396967 -1.2257773 -0.80617964 0.41681898
0003c0 70 36 c2 be f0 d0 f6 3e 0e 55 98 3e 39 20 f9 3f
       -0.37932158 0.48206282 0.29752392 1.9462959
0003d0 f0 50 1f 3f 5f 04 23 3e 53 24 a0 be c6 23 14 bf
       0.62232876 0.15919636 -0.31277713 -0.57867086
0003e0 38 c1 ff 3f 26 f5 f8 3d ad 7d cc be e1 21 a8 3f
       1.9980841 0.12156133 -0.39939633 1.3135339
0003f0 96 33 03 bf 8f b0 6a bd 5e 79 d6 bf e2 81 b1 be
       -0.5125059 -0.057297286 -1.6755788 -0.34669405

embedding_layer.embedding_layers.C11.weight f4 [224, 4]
000000 ef 7f 06 3e 06 14 f8 bf 70 95 41 bf 1c 81 d0 be
       0.1313474 -1.9381111 -0.7561865 -0.40723503
000010 b4 6e 19 3b e3 39 ae 3f 69 23 30 3e 21 c7 b8 3f
       0.0023411931 1.3611416 0.17201008 1.4435769
000020 e8 ce bc 3f 5f 16 07 3e e4 25 13 bf 7e cb aa be
       1.4750643 0.13192128 -0.5747969 -0.33358377
000030 39 2d 98 be 6f 6d 44 3f c7 36 ba 3e 32 09 e1 3d
       -0.29722002 0.7672948 0.36369917 0.10988082
000040 3c 4d 02 3f e6 26 05 3f d3 d4 ce be d5 cb 10 3f
       0.508991 0.5201248 -0.40396747 0.56561023
000050 fe 53 55 bf 7a 6a 8b bf ed 8a 37 bd 4c fb 40 be
       -0.83331287 -1.0891869 -0.044810224 -0.18845862
000060 98 b7 37 3d 08 70 8d 3f 94 83 e6 3e 0e 6a b5 3f
       0.044852823 1.1049814 0.4502226 1.417299
000070 e6 41 a0 bf dd 96 b8 bf 0e 96 14 bf 31 58 44 3f
       -1.2520111 -1.442104 -0.58041465 0.7669707
000080 65 0f 50 40 83 14 3c bf f9 18 88 bf 22 c5 84 be
       3.2509396 -0.734688 -1.0632621 -0.2593165
000090 a3 4e b2 3e 2a ab d7 be d8 13 31 bf a9 49 d2 3e
       0.3482562 -0.42122775 -0.69170904 0.41071823
0000a0 7a d3 07 be bc 68 b4 3f af d5 c5 3e 2f 0d 2c bd
       -0.13264266 1.4094462 0.3863959 -0.04200476
0000b0 9e 2b 83 3e b4 f9 95 bf 32 96 d2 bf 55 39 9c 3e
       0.25619215 -1.1716828 -1.6452086 0.3051249
0000c0 c1 92 07 3f 96 86 32 3f 70 e3 26 3f 0a f8 19 bf
       0.52958304 0.6973661 0.6519079 -0.601441
0000d0 a6 a3 45 3f 06 f8 70 bf f7 a0 75 3e 24 f3 9a be
       0.7720283 -0.94128454 0.23987184 -0.30263627
0000e0 07 48 64 bf 96 34 10 40 eb db e9 be 6a f4 17 bf
       -0.89172405 2.2532096 -0.45675597 -0.5935732
0000f0 1e 78 53 3f 2a 4f ab 3f 2a af 55 bd 9b fa 9c 3e
       0.8260516 1.3383534 -0.052169003 0.30659947
000100 9a 7c 1e be 7c 9f 07 40 b7 97 14 be c3 83 8f 3f
       -0.15477219 2.1191092 -0.14511 1.1212085
000110 cf 37 de bd 3c c1 c8 3f 60 85 9e 3e 37 cf 8f be
       -0.108504884 1.568397 0.30961132 -0.2808778
000120 b8 10 60 3f 21 22 32 bf d8 43 10 c0 18 51 d2 bf
       0.8752551 -0.69583327 -2.2541409 -1.6430998
000130 4c a7 dc be 27 45 ba bd b2 20 e6 be a1 33 8f bf
       -0.43096387 -0.09095221 -0.4494682 -1.1187631
000140 ac 15 f7 3c aa 1b ac bd 79 7e a3 bf 86 02 6f 3e
       0.030161701 -0.08403714 -1.2772971 0.23340806
000150 e5 0b 9b be 77 e9 c5 bd 12 fd 1d 3e 23 13 19 bf
       -0.30282512 -0.096636705 0.1542857 -0.59794825
000160 16 06 8b 3d 87 4f 33 bf c2 47 6c 3e f4 26 4b 3f
       0.0678827 -0.70043224 0.23074248 0.7935631
000170 d1 17 d0 bf 83 9f 00 3f bb 9d ca 3e 42 c9 63 3e
       -1.6257268 0.50243396 0.39573464 0.22244743
000180 3c 9c b2 3f 19 94 1e bf 8d e2 e4 3e 35 83 55 3f
       1.3953929 -0.6194473 0.44704095 0.8340333
000190 54 1d d3 3e 1c 4e 2e 40 e3 4d 2c bf bf 86 bf be
       0.41233313 2.7235174 -0.67306346 -0.3740749
0001a0 ae 85 f1 3f 13 05 e1 be a5 28 a1 3e 73 5d e2 be
       1.8868921 -0.43949184 0.31476322 -0.4421192
0001b0 9c e4 b5 be 87 92 87 3f 51 ed 95 3f 4f a4 10 bf
       -0.35525978 1.0591592 1.1713048 -0.56500715
0001c0 f4 3e ca bf 26 dd 52 bf b0 e8 21 bf 44 96 c3 3f
       -1.5800462 -0.82368696 -0.6324568 1.5280232
0001d0 05 4d ae bd 4f 21 55 3f f6 39 92 3e 63 29 c1 bf
       -0.08510784 0.8325395 0.28559846 -1.5090755
0001e0 47 de ec bf 93 2a a2 bf 58 f0 bf bf 21 79 78 3f
       -1.8505334 -1.2669243 -1.4995222 0.9705983
0001f0 33 92 ce 3f e2 9a 33 bd d6 a5 37 bf 94 9a 1e 3f
       1.6138366 -0.04384888 -0.7173742 0.6195462
000200 a9 b3 be 3e 97 d8 46 3f 98 97 1b c0 2a 81 94 3e
       0.37246445 0.7767424 -2.4311275 0.29004794
000210 54 b2 3c 3e 6e 66 f1 bd b9 d3 7b 3f 68 97 92 bf
       0.18427402 -0.11787115 0.9836994 -1.1452456
000220 1f 57 e0 3f 0e 2a 0e c0 1a 9e 85 bf 50 6b 14 3f
       1.7526587 -2.2213168 -1.0438874 0.57976246
000230 5f 76 3e bf 6b 48 43 bd cb 35 26 3f ad 87 62 bf
       -0.7439937 -0.047676485 0.6492583 -0.88488275
000240 ee b8 21 3f 68 e0 c6 be 7b bf f7 3f 81 3a 31 bf
       0.63172805 -0.38843083 1.935531 -0.69229895
000250 a7 fd 18 bf 52 f0 fa bc f7 47 8f 3f 96 84 ee 3d
       -0.5976204 -0.030632172 1.1193837 0.116463825
000260 f9 ad ee 3e d9 aa 15 40 10 e2 f0 3f c4 dc 46 3e
       0.46617106 2.3385527 1.8818989 0.19420153
000270 b4 9c ba 3f 9e 37 df be 67 10 d5 3f b2 ce aa bf
       1.4579072 -0.4359712 1.6645631 -1.3344328
000280 0f 87 97 3d a4 ca 07 bf a5 f3 03 40 a4 57 88 bf
       0.07398807 -0.5304358 2.061746 -1.0651746
000290 f1 d8 d0 be a3 4a db 3f aa 66 b6 3e b4 5d 53 3f
       -0.40790513 1.7132152 0.356252 0.82564855
0002a0 17 10 f6 3f c9 2f 2e bf 8a 3e 29 3f c4 60 ca 3d
       1.922366 -0.68041664 0.6611105 0.09881738
0002b0 a9 f7 28 bf 78 8a 8b bf d4 98 aa bf af cf b2 be
       -0.660029 -1.0901632 -1.332789 -0.34924075
0002c0 0f ce bf bf 7b 87 d6 3f fa cd b2 be 44 ee 76 be
       -1.4984759 1.6760095 -0.34922773 -0.24114329
0002d0 e6 69 8d 3f 19 88 95 be 6a c7 1e bf aa c6 b0 3f
       1.1047943 -0.29205397 -0.6202303 1.3810627
0002e0 58 88 be bf 1f a0 47 3f 64 d8 f2 bd 96 14 1b 3f
       -1.4885359 0.779787 -0.118576795 0.60578287
0002f0 85 5b 82 3f 0d 9b 98 bf 22 d8 8e bf 56 b7 18 bd
       1.018418 -1.1922318 -1.1159708 -0.037284218
000300 4e ab d5 3f 37 b6 a3 3d b0 87 cc 3f 4f b0 94 3f
       1.6692903 0.07993739 1.5978909 1.1616305
000310 73 54 29 bf 37 4c 8a bf 2a b9 05 40 17 93 92 3f
       -0.66144484 -1.0804509 2.0894265 1.1451138
000320 ca cc b4 3e d6 97 64 be 11 f1 00 be 69 25 ba be
       0.35312492 -0.22323546 -0.1259196 -0.36356667
000330 06 96 07 3c 1b 9a f7 3e 4e 93 6f bf 45 09 2f 40
       0.0082755145 0.4835976 -0.93584144 2.7349408
000340 05 31 4f bf 4c 39 9a bf 72 6c 01 c0 d5 85 7f be
       -0.8093417 -1.2048736 -2.022244 -0.24953397
000350 97 6e 8d 3e 20 4c 29 be 07 cc a2 3f 36 50 ac 3f
       0.27623436 -0.16532946 1.2718514 1.3461978
000360 0f 66 c3 be c1 54 e5 3d 1b 2f f0 3f 1f d5 9a 3d
       -0.38163802 0.11197806 1.8764375 0.07560181
000370 0f 12 fa be f5 8e 8d bf 63 f4 b5 be 69 6d e4 be
       -0.48841903 -1.1059252 -0.35538015 -0.44614723
000380 1d 74 b6 3d 60 b6 e8 bf aa 80 34 3f 77 5f 64 3f
       0.089088656 -1.8180656 0.70508826 0.8920817
000390 56 c4 b3 bf dd 2f c1 bf 2f 98 e1 bf f4 ff a8 bf
       -1.4044292 -1.5092732 -1.7624568 -1.3203111
0003a0 a2 50 b2 3f a7 a7 21 c0 f6 b4 36 3f fb 6d a6 3f
       1.3930857 -2.5258577 0.71369874 1.3002313
0003b0 7c d0 8e bf ba fc 33 bf 75 fd cf bf 0a 85 ab 3f
       -1.1157374 -0.70307505 -1.6249224 1.3399975
0003c0 46 69 7f be 90 41 6c be b4 d9 0b 3f 99 17 dc 3e
       -0.24942502 -0.23071885 0.54629064 0.42986754
0003d0 02 cd 37 3e 35 e6 a1 3e 26 88 0b 3e a9 e1 20 3f
       0.17949298 0.31620947 0.13626155 0.6284433
0003e0 3b ec 95 bd af cf 89 bf ee 52 aa 3f 99 80 82 bf
       -0.07320448 -1.0766505 1.3306558 -1.0195495
0003f0 50 90 99 3f ad 60 10 be 4e 02 d6 bf db 9f 8a 3e
       1.1997166 -0.14099379 -1.6719453 0.27075085
