ModelZoo/DCN/DCN_torch/checkpoints/2025-05-12/21-22-22_AUC_0.70022_Loss_0.49494_Epoch_1.pt (torch, 156340 bytes, 40 tensors)

embedding_layer.embedding_layers.C1.weight f4 [31, 4]
000000 68 60 9c bf 1c ff 83 bc 2c 56 c4 3f 86 5f ec be
       -1.2216921 -0.016112857 1.5338798 -0.4616663
000010 15 57 93 3e 35 2f 82 be 8a 33 20 3f fc a8 93 bf
       0.28777376 -0.2542664 0.6257864 -1.1535945
000020 83 4e f9 3d db cd f0 bf 10 02 0c 40 bd b8 48 be
       0.12173178 -1.8812822 2.187626 -0.19601722
000030 31 45 08 3f 94 15 64 bf bc 71 9d be 37 4f 45 3f
       0.5323058 -0.89095426 -0.30750835 0.77074
000040 93 5e 00 3e 48 bd 0a c0 8f 81 c2 3e fc 25 d1 3e
       0.12536077 -2.1678028 0.3798947 0.40849292
000050 8a 47 ec 3f 4f cb fc 3f d4 2a dd be 67 f1 ae 3f
       1.8459332 1.9749545 -0.43196738 1.366742
000060 c8 e7 58 3f 7c 15 de bc ae 31 d4 3f 1e 6d a6 bf
       0.8472867 -0.027109854 1.6577661 -1.300205
000070 bc 8e 7d 3f 1d 5d 6d 3f 63 50 b5 3f 01 5f 20 3f
       0.9904592 0.92720205 1.4165157 0.62644964
000080 f9 24 2e 40 44 ee bb bf 42 c5 bb bf fe 7b 2b 3d
       2.7210066 -1.4682088 -1.4669573 0.041866295
000090 3e c6 a4 3f d2 b3 25 bf d5 97 60 bf 75 00 9f 3f
       1.2872999 -0.6472751 -0.8773168 1.2422014
0000a0 61 f8 4f 3f bf a2 e6 3e a8 e1 ce 3e fc d4 8a bf
       0.8123837 0.4504604 0.40406537 -1.0846248
0000b0 61 e8 55 bd ca 55 52 bd 9f b3 94 3e cd df 72 be
       -0.052223567 -0.051351346 0.2904329 -0.23718186
0000c0 87 38 39 3f ef 40 b4 bf f1 e1 e1 be ae c7 b6 3e
       0.7235188 -1.4082316 -0.44117692 0.3569922
0000d0 64 69 c3 3e e0 1a a6 bf 77 ac 49 bf 80 12 85 3f
       0.38166344 -1.2976952 -0.78778785 1.0396271
0000e0 b6 af 11 be 2a a7 cc 3e 88 42 b6 bf ee a5 12 bf
       -0.14227185 0.39971286 -1.4239054 -0.5728444
0000f0 11 6f 34 3f 05 d0 05 3e 19 9a 05 bd 66 a2 08 3f
       0.70481974 0.13067634 -0.032617662 0.533728
000100 a5 20 a7 3e 75 28 ee bf 68 a4 b1 bd 14 4c 40 3f
       0.32642093 -1.8606097 -0.08673936 0.75116086
000110 f4 ec 1e 3f a6 14 e0 be db af df 3d 08 11 27 be
       0.6208031 -0.43765754 0.10922214 -0.1631509
000120 20 69 09 bf 2a 5a 73 3f 94 5c a8 3e 51 a0 c3 3f
       -0.53676033 0.95059454 0.32883132 1.52833
000130 64 58 3f be aa 2d 6a 3f 5e 7b a3 be 43 aa b2 3f
       -0.18686062 0.9147593 -0.3193006 1.395821
000140 dd df 9e bf 46 20 08 be e1 6f 11 bf ce 16 c2 be
       -1.2412068 -0.13293561 -0.5681134 -0.37908024
000150 ae 78 94 bf be 51 94 3f 66 c2 4c 3e d4 67 ac 3f
       -1.1599329 1.1587446 0.19996032 1.3469186
000160 1a 05 32 3e d7 23 9d 3f c5 d4 78 3f b5 e6 2f 3e
       0.17384759 1.2276562 0.9719966 0.17177851
000170 6b d0 7c bf 17 91 8f 3f 91 5a 69 3f d6 f0 e5 3f
       -0.9875552 1.1216153 0.9115382 1.7964122
000180 bc f5 3d 3f 45 fd 6a be 44 6e d5 bd ca f8 3e 3f
       0.74203086 -0.22948177 -0.10421422 0.7459837
000190 53 9d 2d 3f 35 c4 89 bf c6 02 51 bf 29 1d 4b bf
       0.6781818 -1.0763003 -0.81644857 -0.7934137
0001a0 2c 43 6f 3f f7 f8 78 bf 9b 9a d7 3d 76 e7 8c bf
       0.9346187 -0.9725489 0.105275355 -1.1008136
0001b0 ad fe 88 3f eb 80 ae 3f 1d d2 84 3e 57 7e bb bf
       1.0702721 1.3633093 0.25941554 -1.4647931
0001c0 2b 09 2a 3f f9 b6 0d 3f f5 68 7b be 9f ca c7 3e
       0.6642024 0.5535732 -0.24551757 0.39021775
0001d0 1e 24 d4 3f 1a 76 4b bf 42 26 5e bf 44 d5 96 3f
       1.6573522 -0.79477084 -0.86777127 1.1783834
0001e0 c7 88 f1 bc bb eb c8 3f 82 a6 cf bf 85 73 af bf
       -0.029484166 1.5696939 -1.6222689 -1.3707129

embedding_layer.embedding_layers.C2.weight f4 [145, 4]
000000 d0 ef 96 3c e1 ba cc 3e 5a a5 63 bf 48 ee d7 be
       0.018424898 0.39986327 -0.8892418 -0.42173982
000010 53 a1 b6 be 73 51 6e bf c7 33 61 bf bc 52 65 3e
       -0.35669956 -0.9309303 -0.8796963 0.22394842
000020 bc ef 68 bf a6 35 7b be 92 ab e7 bd ed c5 1f 3e
       -0.90990806 -0.24532184 -0.11312021 0.15602846
000030 f9 a7 d7 be 67 4a c3 3e 4b af 8a be ec 5e 71 bf
       -0.4212034 0.38142702 -0.27086863 -0.94285464
000040 23 c8 2c bf a4 45 b0 bf 40 2a 17 3e e0 98 01 bf
       -0.67492884 -1.3771253 0.14762211 -0.50623894
000050 2e 16 d8 3f 2d ab 6e bf 05 a0 01 bf 3b 38 01 be
       1.6881769 -0.93229944 -0.50634795 -0.12619106
000060 a5 f3 09 bf 93 c3 3d bf c1 1c a1 3f 2c 0e 8a 3f
       -0.538874 -0.7412655 1.25869 1.0785575
000070 21 42 ab 3f d2 0b e0 bd a5 ed c9 3e 7a 47 03 3f
       1.3379556 -0.109397545 0.3943912 0.5128094
000080 1c 98 e6 3f c4 3e 87 3f 2a 3b cf bd aa 57 de 3f
       1.801517 1.056603 -0.101187065 1.7370503
000090 80 1a b4 3e d1 9a 28 bf 67 1d 92 3e ae 5e 6d 3f
       0.35176468 -0.6586123 0.28538057 0.92722595
0000a0 26 9a 31 bf d4 69 70 bf 4f 43 e4 be e6 a4 64 bf
       -0.69375837 -0.9391148 -0.44582602 -0.89314115
0000b0 79 db 16 c0 3c d4 bc 3e be 42 06 c0 d9 dd ac be
       -2.3571455 0.36880672 -2.0978236 -0.33763006
0000c0 34 ae 75 3f a6 c6 79 bf 14 27 bf be 7a ec b5 3f
       0.9596894 -0.9756874 -0.37334502 1.4212792
0000d0 02 f5 39 3f 13 e3 63 be b6 ed f0 3f b4 98 20 3f
       0.7263948 -0.2225459 1.8822544 0.62733006
0000e0 2a ce b0 bf 34 fa 1e 3f 95 5f 07 3f b0 96 87 bf
       -1.3812916 0.6210053 0.5288022 -1.0592861
0000f0 28 ac 36 3f 3a 8a c2 3e 40 15 dd be d4 5b 16 3f
       0.7135644 0.37996083 -0.43180275 0.5873387
000100 6b c3 c3 be 6e 40 20 3f 4f f1 d5 bf 1c d6 69 3e
       -0.3823503 0.6259831 -1.6714267 0.22835582
000110 d9 f0 f6 3e 01 46 20 bf 45 66 f5 3e 6f 3c 8f bf
       0.48230627 -0.6260682 0.47929588 -1.1190318
000120 8e c0 49 3f a0 ef c4 3c 51 77 7f bf 26 b9 58 3f
       0.7880944 0.024040043 -0.9979144 0.84657514
000130 c2 a1 18 bf b4 e9 b6 3e 0a b3 78 bf 56 57 c2 3d
       -0.5962182 0.35725176 -0.9714819 0.09489314
000140 b9 65 2b bc b4 8a d7 bf e7 a7 89 3e 2c f1 d7 3e
       -0.010461264 -1.6839204 0.26885912 0.42176187
000150 79 d7 03 bf 04 dd 92 3f 81 96 32 3f 8b 8c 9c bf
       -0.5150066 1.1473699 0.697609 -1.223039
000160 db 87 4e 3f f5 fb 80 bf ba 2a 8d 3e 54 89 55 be
       0.8067605 -1.0076891 0.2757166 -0.20853168
000170 39 00 98 bf 57 9d 52 3e f8 c4 c7 bf 6c 52 c9 3f
       -1.1875068 0.20567833 -1.5606985 1.5728278
000180 9d 82 31 bf da af 63 3f 74 d9 09 3f 7f 4d 2f 3f
       -0.69339925 0.88940203 0.5384743 0.68477625
000190 f9 7f 99 3f 8d 95 54 bf b7 25 d3 3f 44 55 4c 3f
       1.1992179 -0.83040696 1.6495885 0.79817605
0001a0 0f 03 d2 be 77 f2 30 bf 40 10 89 bf c5 90 a4 3e
       -0.4101796 -0.6911997 -1.0708084 0.321417
0001b0 db 1b 04 bf 01 4b 01 3e 5d ba ce 3f 18 68 a1 3b
       -0.51605004 0.12626268 1.6150624 0.004925739
0001c0 2c 5b d5 bf fe 59 13 bf 3e e2 e9 3f 41 22 1f bf
       -1.6668448 -0.5755919 1.8272169 -0.6216164
0001d0 2d 92 8f 3f e8 fc fb 3e 6a e3 fe bf da 37 ae 3d
       1.1216484 0.4921639 -1.9913151 0.085067466
0001e0 da e7 21 3f a7 2f dc 3e 19 18 a5 3e 69 84 06 c0
       0.632444 0.43005106 0.32244948 -2.1018317
0001f0 d2 64 81 3f 03 1e f6 be 5d 59 e1 3f 93 0d 98 3f
       1.0108893 -0.48069772 1.7605397 1.1879143
000200 10 0a 2a 3f ed 0f a4 3e 26 43 51 3e c8 56 41 3f
       0.66421604 0.320434 0.20435771 0.7552304
000210 90 a0 3c be c5 24 bd bd fc a4 63 3f 7e 80 c6 be
       -0.18420625 -0.09235529 0.8892362 -0.38769907
000220 91 5e a9 3f c8 44 31 3f 9a 54 b0 bf 9f a0 8e be
       1.3231984 0.69245577 -1.3775818 -0.2785692
000230 d3 18 56 3f f8 dc 52 be 8f c1 f7 bf 88 aa b2 3f
       0.8363163 -0.20592105 -1.9355944 1.3958292
000240 1c 52 e3 3f fe f2 3c 3f 6d 90 e7 3d e8 72 02 c0
       1.7759433 0.73808277 0.11306844 -2.0382633
000250 f0 3c 0e 3f 1b 09 52 3f 04 3d 9e 3e 03 7d d8 3f
       0.55561733 0.82045144 0.30905926 1.691315
000260 20 c3 c5 bf 37 67 bb 3f 32 dc 77 3d 27 ca 8b 3f
       -1.5450172 1.4640874 0.06051273 1.0921067
000270 f0 2a 8a bf 65 80 20 3e 12 7d ba 3e 3c 75 24 be
       -1.0794353 0.15673979 0.36423546 -0.16060346
000280 3b a4 68 3f 11 66 1c 3f 88 a6 b8 3c 1d 3d 8d 3f
       0.90875596 0.6109324 0.022540346 1.1034275
000290 a7 90 95 bf 19 5f e6 3f 5a 52 ca bf 90 cc e4 bf
       -1.1684769 1.7997772 -1.5806382 -1.7874928
0002a0 be 5b 9c be db bc c3 3e ea f3 10 3f bd a1 c0 bd
       -0.30538744 0.38230023 0.56622183 -0.09405849
0002b0 2f 35 cf bf 3e 8a 0f be 3c 3b dc 3d d7 a2 a1 bf
       -1.6188105 -0.14017579 0.107534856 -1.262782
0002c0 13 d9 78 bf 21 f7 71 bf 7f 2b a1 3f a8 a7 e4 be
       -0.9720623 -0.94517714 1.2591399 -0.44659162
0002d0 47 c8 a6 be 97 a9 8f 3f f5 8d 32 3e 96 7a ff be
       -0.32574674 1.122363 0.17436965 -0.49898213
0002e0 83 b0 a7 be a9 2e aa 3f a5 33 80 bf e0 fe 68 be
       -0.32751855 1.329549 -1.0015761 -0.22753477
0002f0 ef b4 5c bf ba 19 1d 3f d8 89 81 be d1 cb 93 3f
       -0.8621358 0.6136738 -0.2530048 1.1546575
000300 aa 81 d6 bf e1 82 84 3f 8d 63 29 be ba dd 10 3f
       -1.675832 1.0352441 -0.16541882 0.5658833
000310 1f 9d 09 bf 68 36 48 be 65 54 41 3f ea 80 0d bf
       -0.5375537 -0.19552004 0.755194 -0.5527483
000320 98 55 6b bf 7e a9 90 3f cf 8c 26 bf ed 40 11 be
       -0.9192748 1.1301725 -0.65058607 -0.14184923
000330 d1 84 94 3e f1 24 02 3f cc d1 90 bf 36 66 a4 3f
       0.2900758 0.5083762 -1.1314025 1.2843692
000340 b9 bc 97 bf 2b ef 92 bf ea 48 ed bd 2c 6b 81 3f
       -1.1854469 -1.1479238 -0.11586173 1.0110831
000350 0c bd 66 bf 73 ec 9f 3e da 71 a5 3f 9e dd cb bf
       -0.9013221 0.31235084 1.292537 -1.5927007
000360 36 3a 6c 3d d6 66 57 3e 74 e3 18 3f 3c e7 53 be
       0.0576727 0.21035323 0.59722066 -0.20693678
000370 9d 14 a7 bf 09 de b2 be da 09 08 bf 37 12 88 3e
       -1.3053166 -0.34935024 -0.5314003 0.26576397
000380 6b 3f 6f bf bb 96 8e 3f eb c6 43 40 41 57 38 3f
       -0.93456143 1.1139749 3.059016 0.7200814
000390 ca 89 42 3f b4 1e 60 bf e7 47 19 3f 37 74 9f bf
       0.759915 -0.8754685 0.5987534 -1.2457341
0003a0 cb 56 54 bf b8 e6 13 bf f1 ba 1f 40 d5 b6 83 bf
       -0.82944936 -0.57773924 2.495785 -1.0290171
0003b0 01 30 bb 3f 12 b4 2d 3e 2e 71 3e bf 53 e0 02 c0
       1.4624025 0.16963223 -0.7439145 -2.0449417
0003c0 b9 4e 50 be db 91 30 3f 73 b8 7f bf 3a d6 78 bd
       -0.2034253 0.6897256 -0.9989082 -0.060751177
0003d0 59 ab 8e bf 56 5e 50 bf 45 8f 7e bd 37 31 96 3e
       -1.1146041 -0.81393945 -0.06214835 0.29334423
0003e0 e3 a5 3a bc f9 c2 14 3f 61 ac a3 3f 7d a7 c1 bf
       -0.01139209 0.58110005 1.2786981 -1.5129238
0003f0 1c 73 ce 3f 2d 02 90 3e d2 ee a0 3e 86 89 3d 3e
       1.6128879 0.2812666 0.31432205 0.18509492

embedding_layer.embedding_layers.C3.weight f4 [59, 4]
000000 b9 2d 8c 3d 54 70 be bf 42 6c 84 3f ff 8d a9 3f
       0.068446584 -1.487803 1.0345538 1.3246459
000010 18 6d f6 be c9 15 1b c0 c9 1e 27 3f 88 78 24 bf
       -0.48130107 -2.4232047 0.6528135 -0.64246416
000020 b6 46 d3 3f eb e1 54 3e 3c cf 22 3f 33 df f6 be
       1.6505954 0.20789306 0.63597465 -0.48217162
000030 12 6c 85 3f 32 7b 46 bf ab f9 44 bf 26 79 21 bb
       1.0423605 -0.7753173 -0.76943463 -0.002463886
000040 9d cb 05 3d ca 8b 4d 3e 5f cd 95 3f 6a 6e 06 3f
       0.032664884 0.20072857 1.1703299 0.5251223
000050 db c4 bc 3d df ae ca bd e3 3e 65 3f bc 42 95 3e
       0.09217235 -0.09896635 0.8954908 0.29152477
000060 b1 56 d6 3d bb ee 51 bf dc 2d 42 3f 94 c2 d7 3f
       0.10465754 -0.820049 0.75851226 1.6856256
000070 de 34 30 3f c2 7d 4c 3f db 09 ea be 8a 75 7c 3e
       0.6883067 0.7987939 -0.45710644 0.24654213
000080 60 7b ca bf e6 d3 a9 3f d0 02 c8 3f c7 a1 a0 bf
       -1.5818901 1.3267791 1.5625858 -1.254937
000090 03 5b ad be d7 52 aa bf fc 95 38 3f 14 c4 d7 3e
       -0.338585 -1.3306531 0.7210386 0.42141783
0000a0 7c c0 d5 bf 8a 9c c2 3e 2a ae b5 3e 1c e7 27 be
       -1.6699367 0.38010055 0.3548444 -0.16396755
0000b0 5b 25 46 bf 95 ec 08 3f a8 f5 3b 3e f7 72 e5 3f
       -0.7740075 0.53485996 0.18355429 1.792571
0000c0 6d aa 10 bd 92 5c 8b 3f 70 9f cb bd d9 f5 23 3f
       -0.03531878 1.0887625 -0.0994252 0.6404701
0000d0 f0 27 9f be 4d a4 b3 be 9f b8 48 3f 96 8c 9b 3f
       -0.31085157 -0.3508629 0.7840671 1.2152278
0000e0 2e 08 d6 be 97 9d b7 bf 62 13 1c 3e 2e 5e 5d bf
       -0.41803116 -1.4344968 0.15241769 -0.8647183
0000f0 bd c9 8b 3f 0d 9f 19 c0 bd 6d 99 bc 93 33 fc 3e
       1.0920941 -2.4003327 -0.018729085 0.49258098
000100 77 02 7c 3d 03 46 f1 bf b5 58 62 3f 51 25 0f c0
       0.06152579 -1.8849491 0.88416606 -2.2366526
000110 8a 98 d3 3d 79 7c d5 bf cf 03 8c bf 16 cc cc 3e
       0.10331829 -1.6678611 -1.0938662 0.39999455
000120 57 ca 31 bf 0e 5d 02 c0 28 fa ed bf 97 98 0c 3d
       -0.6944937 -2.0369296 -1.8591967 0.03432521
000130 04 4f 9b 3f 54 0e 78 bf b4 72 af bf fe 82 3f 3f
       1.2133489 -0.96896863 -1.370688 0.74809253
000140 69 26 ec 3e 5c dc 44 bf 43 e2 ec bf 31 3e 6f 3f
       0.46123055 -0.7689874 -1.850655 0.9345427
000150 05 66 73 3f f7 78 6b 3f e9 8c b1 be a6 ec 82 3f
       0.95077544 0.9198145 -0.34677818 1.0228469
000160 11 55 9d 3e 02 89 51 bf 8a 0f ab 3f 76 d5 d2 be
       0.30728963 -0.8184968 1.3364117 -0.41178483
000170 aa bc fe 3f 2e 5f db 3f ad 4f 5b 3f 34 09 c5 3e
       1.9901326 1.7138422 0.8566845 0.38483584
000180 0f b4 4e be d4 ab 77 3e b9 6f 1b bf b2 3f 5e bf
       -0.20185874 0.24186641 -0.6071735 -0.8681594
000190 e5 82 c9 3e 6b 83 4b 3f c4 92 0b bf 69 9c 67 be
       0.39357677 0.794974 -0.5452082 -0.2261826
0001a0 1a c7 d8 bf b9 98 89 3f f0 44 0a bc d7 5a d6 3e
       -1.6935761 1.0749732 -0.008439288 0.4186618
0001b0 da 71 a1 3f 59 28 8b be 3f 09 7a 3c 4a 92 ca bf
       1.261287 -0.2717922 0.0152609935 -1.5825894
0001c0 b2 d5 58 c0 e8 2f 79 bf ef 47 59 be 8e 4f af 3f
       -3.388043 -0.97338724 -0.21218847 1.3696153
0001d0 73 6c 8f 3e af b5 7a bf 53 0f 0e 3f fb 06 5c 3f
       0.28012428 -0.9793348 0.5549213 0.8594815
0001e0 d8 19 82 bf ff 07 d1 be 54 2f 9e be 6b 50 0a c0
       -1.0164137 -0.40826413 -0.30895483 -2.1611583
0001f0 d0 9e ff 3e 36 ed bd bf 16 c6 c6 bf 9d cf 62 3f
       0.49925852 -1.4838016 -1.5529201 0.8859804
000200 c3 62 fc 3f c5 e5 81 3e 4b af 18 bf f0 e9 d7 3e
       1.971764 0.25370613 -0.59642476 0.42170668
000210 5e de 86 bf 0b e5 33 bf 65 ca b1 bf 6e 61 25 3d
       -1.0536611 -0.70271367 -1.3889891 0.04037612
000220 24 22 d7 be c7 ed cc bf cc 85 61 bc 02 2e f4 bd
       -0.42018235 -1.6010064 -0.01376481 -0.11922838
000230 18 d5 c3 bf 99 b5 20 3f 1b 0a 1f 40 f1 c4 50 3f
       -1.5299406 0.62777096 2.4849918 0.8155051
000240 5c 43 e9 bf d1 33 ea bf e5 69 a0 bd 1e 08 14 3d
       -1.8223681 -1.8297063 -0.07832698 0.036140554
000250 c9 31 91 be f4 27 f1 be d0 03 1a c0 6f 34 ed 3f
       -0.28358296 -0.47100794 -2.4064827 1.8531626
000260 51 33 f9 3e 8b d9 35 be a2 9f d2 3f 78 8a 9e bf
       0.48671964 -0.17758767 1.6454966 -1.2386007
000270 97 bf 49 bc 3e cf 4d bf 13 1b e9 bf 73 b7 3f 3f
       -0.012313745 -0.8039435 -1.8211387 0.74889296
000280 44 4a e0 3e 46 dc c8 3f b8 e1 cd be c6 3f bd 3e
       0.4380666 1.5692222 -0.40211272 0.36962718
000290 ca af 99 bf 6c 52 29 3e a0 e3 a4 bf 37 3e 9e 3f
       -1.2006772 0.16535348 -1.2881966 1.2362736
0002a0 e8 cf c6 bf fa 22 14 bf ef 33 d4 3d 68 39 77 bf
       -1.5532198 -0.5786587 0.10361468 -0.9657197
0002b0 87 01 1a 3f ab 5b 9a 3f 64 da 1e 3e 94 03 13 3f
       0.6015858 1.2059225 0.15512997 0.57427335
0002c0 f2 4c e3 3e 14 6d c3 be ae 2e cd 3d 5e 2f ff bf
       0.44394642 -0.38169158 0.10018669 -1.993633
0002d0 86 64 a2 bf 81 ff 00 3f ee c8 dd 3e cd c4 77 3e
       -1.2686927 0.5038987 0.4331736 0.24196167
0002e0 1b 75 10 bf e4 7b ad bf 76 13 99 3f f5 33 0c be
       -0.5642869 -1.3553433 1.1959064 -0.13691695
0002f0 02 af ff 3f 1c 77 ba be b9 e1 ec 3e f3 22 3a bf
       1.9975283 -0.36418998 0.46265963 -0.7270958
000300 d3 ab 5c 3f a5 4a 18 c0 ad 74 63 3f fd 5f 3a bf
       0.8619968 -2.379556 0.8884991 -0.72802716
000310 43 d0 fe be b4 12 90 be ec 53 7e 3e b9 4a 68 be
       -0.49768266 -0.2813927 0.24836701 -0.22684754
000320 20 f8 02 3f 7a 91 ab bf 90 3c 92 3f de cc df 3e
       0.5115986 -1.3403771 1.1424732 0.4371099
000330 c9 f1 26 3f b8 40 d2 be cd b3 25 be b3 8d ca bf
       0.65212685 -0.41065 -0.1618187 -1.5824493
000340 03 43 8b bf e3 f0 5d 3f a7 b2 8e bf 61 83 59 3f
       -1.0879825 0.8669569 -1.114827 0.84966093
000350 42 7b 23 bd 0f 66 1c 3f 88 43 86 3f de 02 2c c0
       -0.03991247 0.6109323 1.0489359 -2.687675
000360 6e e5 7f ba ba 64 58 3e 27 4b a0 3e ca 2f fd be
       -0.0009761666 0.21132174 0.31307337 -0.49450523
000370 92 65 dc 3f 45 8f b7 3f 85 3c fd be 96 9c ff 3e
       1.7218497 1.4340597 -0.49460235 0.49924153
000380 f0 98 09 bf d5 fa 12 bf f5 b6 58 bf 2e a4 c6 bf
       -0.5374899 -0.5741399 -0.8465417 -1.5518854
000390 e3 26 d7 be e8 ee 5d 3e 79 aa 93 bd bb 77 4a bf
       -0.42021856 0.21673167 -0.072102495 -0.79088944
0003a0 ca 71 31 be 97 22 a1 be 66 6b 9c bf 0d e3 15 40
       -0.17328563 -0.31471702 -1.2220275 2.341983

embedding_layer.embedding_layers.C4.weight f4 [91, 4]
000000 a4 7b 8d bf a5 ac b9 be b2 76 fd 3d 66 e9 2d 3f
       -1.1053357 -0.3626453 0.12376155 0.6793426
000010 8a 07 4e be ae 8b ae 3e 2f 0e aa 3f 8c d9 6a 3f
       -0.20120063 0.34090942 1.3285578 0.917382
000020 fa 5c ea bf 1b ad 94 bf 8d 2f 7b bf 45 38 cb 3f
       -1.8309624 -1.1615328 -0.9811943 1.5876547
000030 b4 0c 74 3f 9e 7c b1 3f 9d 5b 8a 3f 4c f9 7b 3e
       0.95331883 1.3866155 1.0809208 0.24606818
000040 b9 8a 26 be a6 eb 6a bf 60 d6 89 be c5 13 b9 bf
       -0.16263856 -0.9176582 -0.26921368 -1.4459158
000050 42 ed 34 3f de 88 b5 bf d9 a9 f8 bd e3 31 25 be
       0.70674527 -1.4182394 -0.12141771 -0.16132312
000060 15 d3 85 bd 5b fe 0b 3b b3 30 dc 3e c5 41 78 3f
       -0.06534401 0.0021361324 0.43005905 0.96975356
000070 7b d9 9b 3e 8f 21 af be 2d ab 30 3f 2d 1a a0 bf
       0.30439362 -0.3420529 0.69011194 -1.2507988
000080 b9 d2 90 be 3b 38 4b 3d 09 52 c9 bf b4 14 a4 bf
       -0.2828577 0.049614172 -1.572816 -1.2818818
000090 79 c3 9c 3f 35 f6 3b 3f f7 5c 6e bf 13 36 53 bf
       1.2247154 0.7342256 -0.93110603 -0.82504386
0000a0 be 1e 2d be c9 6c e9 3d 2d c6 94 3d d0 f1 bf 3e
       -0.16906258 0.11397702 0.072643615 0.37489176
0000b0 82 fa bd 3f 89 30 60 bf 64 66 4c 3f 74 88 23 3f
       1.4842074 -0.8757406 0.79843736 0.63880086
0000c0 6a f0 13 3f 60 04 3f 3f 20 df 94 3f 1d 87 dd 3f
       0.5778872 0.7461605 1.1630592 1.7306858
0000d0 ae bb e4 3e cf d2 ce be 6e e6 25 bf f2 4c a7 bd
       0.44674438 -0.4039521 -0.6480473 -0.08168973
0000e0 ef 65 e6 bd ee 26 8d 3f 11 f6 a1 bf e3 ea 12 bf
       -0.11249911 1.1027505 -1.2653219 -0.5738966
0000f0 09 be be 3f 89 c3 16 3e 98 b2 9b 3e da bd 21 c0
       1.4901744 0.14723028 0.30409694 -2.5272126
000100 ec 72 6c bf ec 69 50 3f 8f 87 a7 39 a1 b0 53 3f
       -0.92362857 0.81411624 0.0003195372 0.8269139
000110 95 41 1b 40 1e 25 e3 3e e0 e2 03 bf 0f d6 8e bf
       2.4258778 0.44364256 -0.5151806 -1.1159075
000120 e1 50 0c 3e dd 5e 40 3f 9b 7b 44 be 0f 1b c2 3f
       0.13702728 0.7514475 -0.19187777 1.5164508
000130 e5 2a b8 be 7c 77 ca be 53 5c bc 3e d4 22 ed 3f
       -0.35970226 -0.39544284 0.36789188 1.8526254
000140 6d 96 02 3f a9 21 cf bf a9 33 ea 3e 03 86 b2 be
       0.5101078 -1.6182147 0.4574254 -0.34867868
000150 eb fc 54 bd 69 44 8f 3f 02 2b f0 bf 00 90 0d bd
       -0.051999014 1.1192752 -1.8763125 -0.034561157
000160 44 f6 e4 3d 8d 62 95 3f 66 79 a6 be dd e7 ab 3e
       0.11179784 1.16707 -0.32514495 0.33575335
000170 81 b5 aa 3e e7 83 07 bf bb a0 13 bf 61 63 17 3e
       0.33341601 -0.5293564 -0.5766713 0.14784004
000180 1b f8 1e bf bd 97 f3 be 79 b3 b8 3f 03 8c df 3e
       -0.6209733 -0.47576705 1.4429771 0.43661508
000190 0e e6 69 3c 72 73 91 3e c0 f4 ab bf bc e5 0d 3f
       0.014276041 0.2840839 -1.3434067 0.5542867
0001a0 69 1b bc be 2c a0 55 be 25 a0 cc be d7 8c 61 3f
       -0.36739662 -0.20861882 -0.3996593 0.8810553
0001b0 ed 39 60 3f 7b fa 2d bf 4a 71 8e 3f a9 9e 17 3f
       0.8758839 -0.6796033 1.1128323 0.5922647
0001c0 c8 28 a4 3f 35 87 df be 1f 81 28 bf d5 94 85 3e
       1.2824945 -0.43657842 -0.65822023 0.26090112
0001d0 94 1e 45 bf 72 70 49 3f e8 3a 43 3f 19 c2 35 3e
       -0.76999784 0.786872 0.7626176 0.17749824
0001e0 9e d4 60 be f6 ae 79 3f 41 7d c7 3e 58 2f f8 3e
       -0.21956107 0.97532594 0.3896275 0.4847362
0001f0 f1 b7 46 3f 12 1f 9e bf ee c2 cc 3e 3a c4 d6 bf
       0.7762442 -1.2353232 0.3999247 -1.6778634
000200 ee df 95 bf 57 f6 00 bf 04 4d 9a be a1 3d 43 3f
       -1.1708963 -0.50375885 -0.30136883 0.76265913
000210 28 4a 1c bf c1 57 15 be 85 00 86 3e fa ee 5c be
       -0.61050653 -0.14584257 0.2617227 -0.21575537
000220 52 76 12 bf 70 55 8f 3f ec 47 37 3f cf b5 31 bf
       -0.5721179 1.1197948 0.7159412 -0.6941804
000230 3e dd 79 bf 71 c8 fa bf f9 5b 52 bf 61 87 51 bf
       -0.97603214 -1.959242 -0.8217159 -0.81847197
000240 a2 b5 3c 3f 03 26 5b 3f 9e 09 71 3f 37 08 f7 bd
       0.7371465 0.85604876 0.941553 -0.12062114
000250 d5 2a 1a 3f 76 72 a0 3f d9 3b eb be 29 a6 12 3f
       0.60221606 1.2534931 -0.45944098 0.5728479
000260 3e 6e 2d 3e b4 c1 d7 3e 46 de 0a 3e 9c c1 05 3f
       0.16936585 0.4213997 0.13561353 0.5224855
000270 27 ca 0c bf 58 cc 90 bf 65 e9 85 3f 0a fd bb be
       -0.5499596 -1.1312361 1.0461851 -0.3671649
000280 71 29 50 bf f5 40 53 be df c9 43 3d 8e e9 49 bf
       -0.81313235 -0.20630248 0.04779994 -0.78872
000290 2f c2 de be a0 ec 9f bf 3e 77 1e bf 05 da 78 3e
       -0.43507525 -1.2494087 -0.619007 0.24301918
0002a0 e2 bc 88 3f 94 07 cc bd a9 6b 1d bf 88 0b 19 3f
       1.0682642 -0.09962383 -0.614924 0.5978322
0002b0 15 68 13 3f 31 8f 00 3e 34 3e 4f bf 50 ed b5 bf
       0.5758069 0.12554623 -0.8095429 -1.4213047
0002c0 c8 ff d2 3e 03 14 a9 be 90 49 b7 bf 0d 52 00 c0
       0.4121077 -0.3302308 -1.4319324 -2.005008
0002d0 4c 1c bd be 9a e3 32 3f 27 ec 56 3f 9d 9a 61 3f
       -0.3693565 0.6987854 0.8395409 0.88126546
0002e0 e8 f9 28 3f 8e b3 9c bf 82 7a 93 b9 17 ba 2f 40
       0.66006327 -1.2242296 -0.000281293 2.745733
0002f0 7d 09 9d be 2e 33 22 3f 6c be 4e be ab ae 1f c0
       -0.306713 0.63359344 -0.20189828 -2.495036
000300 be ce 90 bf 0f 82 96 bf 8e 72 1b c0 ad 14 90 3f
       -1.1313093 -1.1758441 -2.4288669 1.125631
000310 93 9d 70 bf 39 0b a8 3f 57 df 83 bf 15 b8 27 bf
       -0.9399044 1.3128425 -1.0302533 -0.6551526
000320 cd 05 89 bf 38 dc f1 bf df 69 e1 bf 76 28 eb be
       -1.0704895 -1.889533 -1.7610434 -0.45929307
000330 3c 26 00 bf 57 92 1d bf a5 40 74 3f 0b 8b 4c 3f
       -0.5005834 -0.6155142 0.9541114 0.7989966
000340 31 2f 15 bf 3d 8d bc bf 4f 8b 05 bf 5c b7 80 bf
       -0.58275133 -1.4730603 -0.52165693 -1.0055957
000350 f7 5f 71 bf 3e 72 7a 3e 46 49 1c 3f 32 e9 68 3e
       -0.94287056 0.24457642 0.61049306 0.22745207
000360 e0 56 6d 3e 36 38 b5 bb 9e 82 60 3e 0c 9c 0f bf
       0.23177671 -0.0055303825 0.21924827 -0.56097484
000370 66 0d 80 3f f5 e0 9d bf 77 fa ab 3d ae 8b ec be
       1.0004089 -1.2334276 0.08397382 -0.46200317
000380 a6 b6 ae bf 85 7c c7 3f 79 ad 6a 3f 0f 02 77 3f
       -1.364949 1.5584875 0.9167095 0.96487516
000390 49 e8 ad 3e 2d 0d 7d be 16 76 a1 bd 8f 14 f7 3e
       0.33966282 -0.24712057 -0.07883851 0.48257872
0003a0 eb e6 08 c0 22 41 21 3f d7 19 de 3e 2a 4a 37 be
       -2.139094 0.6299001 0.4337909 -0.17899385
0003b0 18 86 f3 be 4f 5d bb be ad 8b 67 bf 38 63 e6 3f
       -0.47563243 -0.36594626 -0.90447503 1.7999029
0003c0 ad bc ce 3f 40 ef ec be e3 75 8d 3f 10 c1 55 bd
       1.6151329 -0.46276283 1.1051601 -0.052186072
0003d0 71 5c 80 3f 0e 43 71 bf 47 00 6f 3e d5 ea f5 be
       1.0028211 -0.9424294 0.2333995 -0.48030725
0003e0 0d 8a e3 be 30 ef cf 3f f5 fd d5 be ca 93 a0 bf
       -0.44441262 1.6244869 -0.41795316 -1.2545102
0003f0 ab a2 a8 3f 70 4e 3d 3f 06 87 dc 3e 38 b2 23 3e
       1.3174642 0.7394781 0.43071765 0.15985954

embedding_layer.embedding_layers.C5.weight f4 [17, 4]
000000 91 0f 4a bf 4d 4b 3e 3f 8b 71 04 bd 47 98 b1 3f
       -0.7893 0.7433365 -0.032334846 1.3874596
000010 68 d6 68 3f 7c 5b ab be 09 8b 32 bf 88 2a 40 3f
       0.9095216 -0.33468235 -0.697434 0.750649
000020 0a 63 89 be 37 37 19 3e 5f 18 fd 3f c1 b6 3a 3f
       -0.26833373 0.14962469 1.9773062 0.7293511
000030 48 9a de 3b a4 b2 43 be d2 4e a7 bf d6 81 81 bf
       0.006793294 -0.19111115 -1.3070929 -1.0117748
000040 86 a7 92 be 62 5b 79 bf 4b 7c 08 40 e9 20 f5 3f
       -0.28643435 -0.97405064 2.1325862 1.9150668
000050 d8 d6 d3 be e1 63 06 bf f1 c2 55 bf 56 9f c9 3f
       -0.4137485 -0.52496153 -0.8350058 1.575175
000060 02 d9 6b bf 13 e2 e0 3e c4 75 a7 3e 2c c2 a4 3f
       -0.92128 0.4392248 0.32707036 1.2871757
000070 a5 37 93 3f 8b 4a 59 3f 99 e5 8b 3f b3 38 de be
       1.1501356 0.8487937 1.0929443 -0.43402633
000080 f7 73 d0 3f 5a 9b 9a bf a9 3d d8 3e 73 9d 17 3e
       1.628539 -1.207866 0.42234543 0.14806156
000090 4f 9a a0 3d 5c 33 ab be a9 75 88 3f 46 7c 69 bf
       0.07841932 -0.33437622 1.0660907 -0.9120525
0000a0 e8 84 fd 3c 22 2c d1 3f 1f db 7e 3f a7 c9 95 be
       0.030947164 1.6341593 0.995531 -0.2925541
0000b0 12 d2 29 3f 7f 1f 9c be cf 3f 48 3f 2e 71 e8 3e
       0.66336167 -0.3049278 0.78222364 0.4539885
0000c0 83 29 95 bd 84 c4 b1 be 5d b5 a3 bd 43 e3 a4 3d
       -0.07283308 -0.34720242 -0.07993577 0.08051159
0000d0 81 2e 0f 40 ab a1 18 bf 83 7a 85 be ac af 28 c0
       2.2372134 -0.59621686 -0.26070032 -2.6357222
0000e0 9d 43 99 bf 19 96 5e bf 06 53 65 3f 75 8a 57 bf
       -1.1973759 -0.8694778 0.8957981 -0.84195644
0000f0 eb 8b fc be 6d f7 d4 3c 2b 38 2c 3e 2d 36 a8 bf
       -0.493255 0.025996888 0.16818301 -1.3141533
000100 9a 83 5e bf b9 2f ce 3f 80 d9 6a bf 76 80 a3 be
       -0.8691956 1.6108314 -0.9173813 -0.31933945

embedding_layer.embedding_layers.C6.weight f4 [7, 4]
000000 74 66 c3 3e ff 00 c4 3e 9d 35 c7 be 2e 10 a3 3f
       0.38164103 0.3828201 -0.3890809 1.2739313
000010 82 a1 a8 3e 50 2b 0a bf 43 a5 ef 3e 5c 4d 72 3f
       0.3293572 -0.5397234 0.46805772 0.9464929
000020 20 ce fd bc 2e a7 2d bf f3 f6 ab be 16 b5 86 be
       -0.030982077 -0.6783322 -0.33586845 -0.26310033
000030 87 a8 bb be f7 78 81 be 1a 7d 3d 3f 17 7f a5 3f
       -0.36652014 -0.252876 0.74019015 1.292941
000040 47 dc ef 3e 62 da 52 3f eb 6d 5e 3d e3 b5 9e 3f
       0.46847746 0.82364476 0.054304045 1.2399257
000050 3b 82 0d 3f 3a ce 7a 3f 8b 49 8f 3e ca 51 7c bf
       0.5527684 0.97970927 0.27985796 -0.985623
000060 67 21 af 3f 44 f5 ac 3e 96 08 f7 3e cd a5 fa bd
       1.3682069 0.33780873 0.48248738 -0.12238655

embedding_layer.embedding_layers.C7.weight f4 [173, 4]
000000 04 65 20 3f cd f8 bb bf f3 88 bd 3f 2c 87 35 c0
       0.6265414 -1.4685303 1.4807419 -2.8363752
000010 8b 0b 6b 3f 00 eb 01 bf 5b b4 86 bf 9d 87 2b 3f
       0.9181449 -0.50749207 -1.052379 0.67003804
000020 10 3f 80 3f 29 dd 9b 3f 85 33 03 3e 1c 6f 3c 3e
       1.0019245 1.2176868 0.12812622 0.1840176
000030 40 6f 62 be 41 47 5c bf 7e e5 71 bf 15 40 03 3f
       -0.22112751 -0.86046225 -0.944908 0.51269656
000040 9b 72 d6 3e 17 0e 55 be 8a 7f 6f bf 9a 92 86 3f
       0.41884312 -0.20806156 -0.93553984 1.0513489
000050 a6 ff ea bc 28 26 3b bf d6 0c 8e bf 71 13 dc bf
       -0.028686356 -0.73105097 -1.1097667 -1.7193433
000060 a5 13 9d 3e 19 2b 8e 3e 30 40 9a 3e 68 dd 3a 3f
       0.3067905 0.27767256 0.30127096 0.7299409
000070 de 20 97 be 76 03 b6 bf 98 d1 1b 3e 47 20 3b 3e
       -0.29517263 -1.4219806 0.15216672 0.18274032
000080 87 78 1f c0 c1 c3 d5 be 67 18 17 bd 26 1e 96 be
       -2.4917314 -0.4175091 -0.036888506 -0.29319876
000090 1d 6b ee 3c a5 8a f1 3f 37 74 80 3f 27 ae a1 3e
       0.02910381 1.8870436 1.0035466 0.3157818
0000a0 2a 69 2f 3f a1 b5 9f bf 32 da 41 3e 07 c5 ca 3e
       0.6851984 -1.2477304 0.18930891 0.39603445
0000b0 4f 97 b9 bd 6e ee ce bf 80 0d ab 3e ae 7d a9 bf
       -0.09062063 -1.6166513 0.33408737 -1.3241479
0000c0 b4 0f 97 3f a1 6c 87 bf 52 53 be 3f 1d 13 c3 3f
       1.1801667 -1.0580026 1.4869177 1.5240208
0000d0 69 4f bb bf 4b d7 8d bf 72 96 a5 bf ad 47 1e bf
       -1.4633609 -1.1081327 -1.2936537 -0.6182812
0000e0 ab 28 96 be a9 5a b1 bf 68 fd f3 3e d9 4b a8 3e
       -0.29327902 -1.3855792 0.4765427 0.32870367
0000f0 7d 17 df bd 62 dd 22 bf 52 35 1c 3f 7e a5 e3 be
       -0.10893152 -0.63619053 0.6101886 -0.44462198
000100 45 9e 6d be d3 e1 d2 3e 1d e8 76 3f bf 87 b6 be
       -0.23204906 0.41187915 0.96447927 -0.3565044
000110 5f 02 0d 40 e4 19 c8 3e 58 a1 76 3f 38 50 fe bc
       2.2032697 0.39082253 0.9633994 -0.03104411
000120 76 7c 42 bf 72 2e 15 3f 1d 4a c2 bf 95 ac 1f 3e
       -0.7597116 0.58273995 -1.5178868 0.15593179
000130 8a a3 3e 3f e3 65 da 3f 5e 13 7e bb ab c5 c9 3e
       0.7446829 1.7062343 -0.0038768868 0.3940862
000140 05 19 55 3f 17 43 d4 be b1 b6 29 3f a5 18 fb bd
       0.832413 -0.41457435 0.6629439 -0.1226056
000150 76 fa 38 be dd 98 92 bf 7a 00 0c c0 7c da ab be
       -0.18064293 -1.14529 -2.187529 -0.33565128
000160 6a ac e8 3d 6e 3e 89 bf c2 2d 51 be 17 02 86 be
       0.113610104 -1.0722177 -0.20427611 -0.2617347
000170 93 b5 7f bf c9 c1 22 3f 98 ce 9b 3f 49 b4 aa be
       -0.99886435 0.6357694 1.2172422 -0.33340672
000180 5d 8b a3 bf 60 51 6a bf 93 07 d0 3e 9e f3 b8 be
       -1.2776905 -0.9153042 0.4063078 -0.36123365
000190 2d 6f e4 3d ae ba c0 3f 49 52 12 3f 0f 8e fa 3e
       0.111540176 1.505697 0.5715681 0.48936507
0001a0 78 c7 22 3f 9c 90 12 bf 9d 00 9e bf 97 a9 9a 3e
       0.63585615 -0.57251906 -1.2343937 0.30207512
0001b0 ac 3a 14 3f 88 28 9b 3f 8d 0b 23 bf 1f 2a 48 3e
       0.57902026 1.2121744 -0.636895 0.19547318
0001c0 fc 7c 16 bf 42 fa ef 3e d2 2c 14 3f e5 0c b2 3e
       -0.5878446 0.4687062 0.5788089 0.34775463
0001d0 62 e5 c7 3f ac df 56 bf 01 88 21 bf e8 4b f0 bd
       1.5616877 -0.83935046 -0.6309815 -0.11733228
0001e0 df 28 87 bf 65 d1 83 bf 1c 2f 9a 3d 1d bb 0a 3f
       -1.0559348 -1.0298277 0.07528517 0.5419176
0001f0 6f fa 1d 3e 83 75 2e bf 7b 1b 96 bd 96 64 65 bf
       0.15427564 -0.6814806 -0.0732946 -0.89606607
000200 b4 c9 0b bf f3 7c 67 be 68 92 b9 bf f8 f7 86 bf
       -0.5460465 -0.22606258 -1.4497805 -1.0544424
000210 29 ef 78 3f 57 1d 09 bf 54 02 a5 3f 7d 58 ad 3e
       0.9723993 -0.53560394 1.2891335 0.33856574
000220 af 21 44 3f 85 46 b2 3f 76 fd 1d 3f d7 04 76 be
       0.766139 1.3927771 0.61714876 -0.24025284
000230 01 27 60 bf bb d4 1d 3f 0b 17 8c be c5 85 88 3f
       -0.87559515 0.61652726 -0.2736133 1.0665823
000240 2c 42 8c 3f e4 6e 10 c0 e4 47 be 3e fb 3f 5b 3f
       1.0957694 -2.2567682 0.37164223 0.856445
000250 c0 b1 a9 be 58 6b 57 bf ae 53 29 bf 61 52 b0 bf
       -0.33143425 -0.8414817 -0.6614331 -1.377514
000260 67 7f d6 bf f1 ce 94 3e d8 16 9d bf 02 f6 05 be
       -1.675763 0.29064134 -1.2272596 -0.13082126
000270 bb de 05 3f a0 ca c8 3f 2c 40 69 bf 28 b8 8e bf
       0.52292985 1.5686836 -0.91113544 -1.114995
000280 e0 3e bc 3e 39 79 e9 be 52 e2 a1 3f 56 06 e4 3f
       0.3676672 -0.45600298 1.2647192 1.7814434
000290 8d 08 8b bf 66 ff 81 3f 3d c8 df 3f 5c 38 26 bf
       -1.0861984 1.0156066 1.7482983 -0.6492975
0002a0 89 b4 9d bf c6 c1 85 3e c0 d8 28 3f fb 33 c7 bf
       -1.232072 0.261244 0.65955734 -1.5562738
0002b0 96 79 c3 bd 32 b4 05 3e a7 cd ae bf b3 80 37 c0
       -0.09544675 0.1305702 -1.365651 -2.8672302
0002c0 25 80 18 3f 1e 03 fd be c4 82 be 3f 79 80 da 3e
       0.59570533 -0.4941644 1.4883657 0.42676142
0002d0 40 2e 8b bf c6 11 57 bd a4 37 93 3f ae db 0c bf
       -1.0873489 -0.052507184 1.1501355 -0.55022705
0002e0 46 a7 db 3e c0 7c 00 bf 16 4a 0a 40 cd 48 e4 3e
       0.42901057 -0.50190353 2.1607718 0.44586793
0002f0 48 b9 45 3f 17 64 aa bf d1 58 03 bf 00 03 41 bf
       0.7723584 -1.3311795 -0.513074 -0.753952
000300 c2 f9 3d 3f c9 d6 ae be c5 61 38 bf e2 83 01 3e
       0.74209225 -0.34148243 -0.72024184 0.12647966
000310 a0 7a ae bf f5 c1 57 3e 27 34 be bf ae e6 71 3e
       -1.3631172 0.21070082 -1.4859666 0.23623154
000320 1c 13 f1 bf fc 0c ed 3f b3 2d 0f 3f 52 5b e0 bf
       -1.8833957 1.8519588 0.55929106 -1.7527869
000330 b7 89 85 be e7 83 89 3e 09 dc 70 3f 63 3c 15 3f
       -0.2608163 0.26858446 0.94085747 0.5829527
000340 2e 42 eb 3e f0 0b 08 c0 89 12 05 bf b2 58 79 3e
       0.4594893 -2.1257286 -0.5198141 0.24350241
000350 e2 4e 23 c0 cc b1 aa be c3 e6 2c bf f9 7c cb 3f
       -2.5516896 -0.33338773 -0.67539614 1.5897514
000360 3c 67 15 c0 ae 04 a4 bf fd 72 89 3e 4e 75 28 be
       -2.334426 -1.2813928 0.26845542 -0.16450998
000370 35 d3 c4 3e ce e2 3d be d4 79 2c 3e 70 e5 2a 3f
       0.38442388 -0.1854355 0.16843349 0.66756344
000380 39 58 ab 3f 5e d3 5f 3e b4 68 a6 3e b9 53 a1 3d
       1.3386298 0.21857974 0.32501757 0.07877297
000390 6e 89 f6 3e 19 cf 0b 3f 67 f8 44 bf d5 34 27 be
       0.48151726 0.5461288 -0.7694153 -0.16328748
0003a0 bc 67 e1 3e 29 4f 21 3f 26 2a 0c 3e fe eb 09 40
       0.44024456 0.63011414 0.13687953 2.1550288
0003b0 a9 c0 fc bf 6e f4 e0 be ea 3e 84 bf 82 98 e9 3e
       -1.9746295 -0.43936485 -1.03317 0.45624167
0003c0 34 0e 0d 3f 5c e6 aa 3f 81 bf 08 bf 4d fa 8a be
       0.550998 1.335155 -0.5341721 -0.2714409
0003d0 46 47 60 be 90 51 b2 3f 16 f0 29 bf bc 2a e6 3e
       -0.21902189 1.3931141 -0.6638197 0.4495448
0003e0 d0 a1 79 bf cd eb 97 bf 29 08 87 bf 2b 0e b4 3e
       -0.9751253 -1.1868836 -1.0549365 0.3516706
0003f0 58 23 9f be 7c ad 25 bd fb bb 36 3f 9a 37 98 be
       -0.31081653 -0.04044865 0.71380585 -0.2972992

embedding_layer.embedding_layers.C8.weight f4 [24, 4]
000000 fb ae 90 be fa 7c eb 3e 5b d0 01 bf ce 4a 7d 3f
       -0.282585 0.45993787 -0.5070855 0.9894227
000010 07 e9 e5 3e a8 81 9f bf 5a ca 2d be e6 44 10 bf
       0.44904348 -1.2461443 -0.16971722 -0.5635513
000020 7d b0 02 3f 4a a7 bb bf 34 29 54 3f 66 a0 82 bf
       0.5105055 -1.4660428 0.8287537 -1.02052
000030 16 44 89 3f 40 17 3e 3b 00 91 d1 be 5c a6 9e bf
       1.0723903 0.0029005557 -0.4093094 -1.2394519
000040 c9 e1 68 bf 5a e4 c1 3d ec 40 9c bc b4 98 45 3f
       -0.9096952 0.09467383 -0.019073926 0.7718613
000050 2c 0f 46 bf f7 82 2c be 0c be 7e 3f ff 43 d6 be
       -0.773669 -0.16846834 0.9950874 -0.41848752
000060 f2 1c 04 40 5f f9 91 bf 77 9a af 3f 49 a3 87 be
       2.0642667 -1.1404227 1.3719014 -0.26491764
000070 47 66 71 bf f0 af 2d be 6d c2 63 bf f5 bd 83 3d
       -0.9429669 -0.16961646 -0.88968545 0.06432716
000080 2f dc 15 3f d8 08 d8 3e 06 9c 3c 3e b7 f3 53 3f
       0.585391 0.42194247 0.18418893 0.82793754
000090 14 2a 5b bf 04 a9 0f 3f 9d 30 e1 bf d7 6d e3 be
       -0.8561108 0.5611727 -1.7592961 -0.4441974
0000a0 a4 f1 e5 3f 8d 50 cb 3f c5 f4 cd 3d b0 01 e5 be
       1.7964368 1.5883957 0.10056452 -0.4472785
0000b0 04 84 02 3f ef f6 b3 be c2 a5 5b 3f ce a1 72 bf
       0.5098269 -0.35149333 0.857998 -0.94778144
0000c0 f1 4c 1a 40 bc 00 77 bf 0b bf fa 3e a6 45 9f 3e
       2.4109461 -0.96485496 0.4897388 0.31107825
0000d0 8e a4 d7 bf 4a 16 1b 40 fb 03 24 3f 7d 3a b8 be
       -1.6847093 2.4232354 0.64068574 -0.35982123
0000e0 38 d0 b9 3f f8 e9 90 be 9d f6 8f 3f 62 60 73 be
       1.4516668 -0.28303504 1.1247135 -0.23767236
0000f0 bf 1e a2 bf fb 7d d7 3f 01 79 ad 3e ec 53 06 bf
       -1.2665633 1.6835321 0.3388138 -0.52471805
000100 4b 5d 96 be 4b c6 52 bf 7e 2c de be 17 18 8c 3f
       -0.29368052 -0.8233382 -0.4339332 1.0944852
000110 08 f3 97 bf 1e 7d 44 bf ca 7f e2 be 5f c2 fc 3d
       -1.1871042 -0.76753414 -0.4423812 0.12341761
000120 39 4c 85 be f7 64 21 c0 90 49 37 bf 53 79 81 3b
       -0.26034716 -2.5217874 -0.7159662 0.0039512306
000130 d9 50 3d 3f 60 fd 81 3f 12 eb a8 3e 41 af 15 c0
       0.7395149 1.0155449 0.32991844 -2.3388216
000140 87 31 60 be 29 e9 6d 3f 61 35 03 3e 66 31 4a 3e
       -0.21893893 0.929339 0.12813331 0.19745407
000150 53 f3 b0 bf b0 cb 0e 3f 23 db 67 3f d2 97 c5 3e
       -1.3824257 0.5577955 0.9056875 0.38592392
000160 1e 7e 98 bf 92 4d 1b bf 9e 35 c8 3e ab 60 4a bf
       -1.1913488 -0.6066524 0.39103407 -0.79053754
000170 71 a6 bb 3f e7 d3 0e 3f 56 99 2e 3e 5f b5 14 bf
       1.4660169 0.5579209 0.1705068 -0.5808925

embedding_layer.embedding_layers.C9.weight f4 [3, 4]
000000 5b 29 ac 3e 11 ec 0d 3f 7e e7 6c bf 5b a3 38 c0
       0.33625302 0.55438334 -0.9254073 -2.8849704
000010 b0 e2 e9 bf af 15 00 40 ba 4b b4 3d ed 31 22 3f
       -1.8272305 2.0013235 0.08803506 0.6335743
000020 96 93 5a 3f 03 c0 9d 3f 3c f8 fc bf 5e bb 4f bf
       0.8538145 1.2324222 -1.9763255 -0.81145275

embedding_layer.embedding_layers.C10.weight f4 [102, 4]
000000 b7 ec 1a be e9 74 8c 3f 19 a6 75 bf 2c 24 16 3f
       -0.15129362 1.0973178 -0.9595657 0.58648944
000010 92 fd 93 3f 7a 0b 86 3f d4 4a d4 3d 26 7b c0 3e
       1.1561759 1.0472252 0.10365835 0.37593955
000020 36 ad de be 7d 4e c2 3f 56 17 84 bf 22 7f f7 bf
       -0.43491524 1.5180203 -1.0319622 -1.9335673
000030 ca f3 38 3e 50 64 38 3f 8c d0 41 3f 51 16 ab 3e
       0.18061748 0.72028065 0.7570884 0.33415464
000040 97 db 05 bf 94 fd d1 bf e2 83 ee 3d 7d 74 86 bf
       -0.5228819 -1.6405511 0.116462484 -1.0504299
000050 81 8c 4a bf e4 a4 de bf fd 50 4f bf a0 51 b5 3f
       -0.7912064 -1.7394071 -0.80982953 1.4165535
000060 b2 58 68 3f 5d bc 72 bf 20 76 be bd 07 89 2b 3f
       0.9076034 -0.9481867 -0.09299874 0.6700596
000070 80 e7 34 3f 9f 80 b4 bf 92 0d c8 bf ce d2 83 3d
       0.7066574 -1.4101752 -1.5629141 0.06436692
000080 72 5d c4 be 28 28 9a be 28 8c 53 3f 28 b1 58 bf
       -0.38352543 -0.30108762 0.82635736 -0.8464532
000090 4c d9 03 3e cd 3b d4 bf 44 29 2c bf 12 11 8c bf
       0.12875861 -1.658075 -0.67250466 -1.094271
0000a0 a7 84 9f 3f f3 d6 85 be e7 52 9b 3f e9 56 d9 3c
       1.2462357 -0.26140556 1.2134675 0.0265307
0000b0 5d 91 18 bf e7 c9 ee 3f ca 0b 32 3f 48 62 b4 3d
       -0.59596807 1.8655366 0.6954924 0.08807808
0000c0 f1 f1 61 bf fb 88 b4 be fa 46 c1 be 25 f3 63 be
       -0.882598 -0.35260758 -0.37749463 -0.22260721
0000d0 56 e2 40 3f ca b2 83 3e 7e b3 cb 3e 35 33 0c bf
       0.7534536 0.25722343 0.3978538 -0.54765636
0000e0 42 fc 02 3f 73 ac 09 bf be 51 70 bf c5 fb 87 bf
       0.51166165 -0.5377876 -0.9387473 -1.0623709
0000f0 e5 82 91 be a8 8b 20 40 ae 2e d3 bf f7 3f 99 bf
       -0.28420177 2.508524 -1.649862 -1.1972646
000100 80 58 f5 bf 62 7a 10 3f ed bb e4 3f 3c 5c d0 3d
       -1.9167633 0.5643674 1.786985 0.10173842
000110 72 32 9e 3e 6c 26 9d be 2a de ef be 0d 9e 8a be
       0.30897862 -0.30693376 -0.46849185 -0.27073708
000120 99 48 ab 3e a3 9e fb 3e 19 e6 e5 3f 5e a8 9d 3f
       0.33453825 0.49144468 1.7960845 1.2317007
000130 4f 3a 8e bc 0f 25 16 3e 81 fd 90 3e 22 2d 4b 3f
       -0.017361788 0.14662574 0.28318408 0.7936574
000140 1a c8 ba 3f eb 3c a4 bf 76 cd eb bf e9 6b 26 3f
       1.4592316 -1.2831091 -1.8422077 0.6500841
000150 ea 8c bd be 37 a2 ed bd 4b 0c 6e bf 76 fc dc bf
       -0.3702157 -0.11603206 -0.9298751 -1.7264545
000160 31 f4 c6 3f 6b 64 12 bd cf be 41 bf 7a 3a 65 3f
       1.5543271 -0.035740297 -0.75681776 0.89542353
000170 b9 9a 27 bf 1a ee e9 3d 93 cc 54 3f fd 08 06 bd
       -0.65470463 0.114223674 0.83124655 -0.032723416
000180 c8 23 2d bc 5b 39 a2 bf 13 1d 39 be 01 48 27 3f
       -0.010567613 -1.2673753 -0.18077497 0.65344244
000190 0f a5 11 c0 09 97 ae be 92 29 72 bf 98 c6 b8 be
       -2.2756994 -0.34099606 -0.9459468 -0.36089015
0001a0 a5 32 6a 3f 15 51 1f 3d 59 e0 a1 be 7c 18 36 bf
       0.9148353 0.038895685 -0.31616476 -0.7113111
0001b0 12 ef 8d bf 7c 21 90 3d 49 3e 35 be 6d ef ab be
       -1.1088583 0.07037637 -0.17699541 -0.33581105
0001c0 f1 51 20 c0 a2 44 fc 3e 75 b3 e1 3f ed 2e 89 3e
       -2.5050013 0.49271113 1.7632891 0.26793614
0001d0 cb b9 a1 3e 64 f6 0e be f4 ff 17 40 b3 61 4e be
       0.3158706 -0.13961178 2.3749971 -0.20154457
0001e0 b7 55 8d bf 3d 37 94 3e a0 63 41 bf 52 41 23 3f
       -1.1041783 0.28948393 -0.7554264 0.63771546
0001f0 08 7a 63 bd 5c 41 5c 3f d2 c1 f5 3e da 8f dd bf
       -0.0555363 0.8603723 0.47999436 -1.7309525
000200 da f9 0d be 7b da cf 3f f5 0e cf 3f 57 52 74 3f
       -0.13864842 1.623855 1.617644 0.9543814
000210 d6 59 c0 3f b2 13 e2 be 2a 8c 41 c0 05 f5 90 3d
       1.5027416 -0.4415565 -3.02418 0.07077984
000220 ae 0d 03 c0 cc d5 c7 3e 06 14 6e 3f 52 56 2a bf
       -2.04771 0.39030302 0.92999303 -0.66537964
000230 36 39 92 3f 3d f5 7b 3d 6b 89 85 bf 79 b6 cf 3e
       1.1423709 0.061513174 -1.0432562 0.40568903
000240 94 09 2e be e7 d4 b4 bf 25 27 d2 3f 60 39 20 3f
       -0.16995841 -1.4127473 1.6418196 0.6258755
000250 60 c4 a6 3f 37 da 3f 3f c9 59 87 be 77 45 e0 bf
       1.3028679 0.74942344 -0.26435688 -1.7521199
000260 ac d8 70 bf d1 21 3e 3f 00 19 6d bf 73 5a 7e bf
       -0.94080615 0.7427035 -0.9261627 -0.99356765
000270 e6 db 95 3f 84 fa 0b 40 58 fd 94 3e 41 c8 13 3f
       1.1707733 2.1871653 0.29099536 0.5772744
000280 95 22 2c 3f 1d 06 87 3f 18 6b d9 3d c1 12 72 be
       0.6724027 1.0548741 0.1061613 -0.23639967
000290 46 13 ff 3f 12 80 d1 3f 03 87 b7 3f cb 40 ad bf
       1.9927757 1.6367209 1.4338077 -1.3535398
0002a0 0f 7d d3 3e 50 4b 10 bf ff 7c e1 be c9 94 c2 3e
       0.4130635 -0.5636492 -0.44040677 0.3800414
0002b0 21 b1 04 3f 14 dd d6 bf ac 61 da 3f e7 cf 06 bf
       0.5183278 -1.6786218 1.7061057 -0.52660984
0002c0 55 27 dc 3d 8b be 77 bd 41 6e 32 bf 72 c2 db 3f
       0.107496895 -0.06048445 -0.69699484 1.7168715
0002d0 a6 b2 ce bf 49 42 5a bf ae 85 2c bf 08 6d 6e 3e
       -1.6148269 -0.85257393 -0.6739148 0.2328378
0002e0 82 4d c9 3e 43 e9 3e bf c7 f0 17 bf f2 8f bd bf
       0.39316946 -0.7457468 -0.5935177 -1.4809554
0002f0 0b 87 54 bf e7 86 b6 bc 7b 5e 7f bf f2 60 93 be
       -0.8301856 -0.022281123 -0.9975354 -0.287849
000300 5e 47 b7 3f 3c 56 99 bf c1 e7 99 3e 98 61 d3 bb
       1.4318655 -1.1979442 0.30059627 -0.006450843
000310 48 a8 fc be 3e 28 1c bf 27 20 15 bf a6 88 a9 3f
       -0.49347138 -0.60998905 -0.58252186 1.3244827
000320 e6 dd 2e 3f f5 cf 7b bf a0 6f 71 bf c4 1a 84 3e
       0.6830734 -0.9836419 -0.9431095 0.2580167
000330 23 ef 6f 3e 91 4a f5 3e 1f 1a c0 bf 5b 72 c0 bf
       0.23431067 0.47908452 -1.5007972 -1.5034899
000340 60 b9 9e 3e 27 a2 e4 bf 45 e4 30 3d 8e 2c ab 3e
       0.31000805 -1.7861985 0.043186445 0.3343243
000350 69 60 8b bf 3c 97 fc be a1 e2 96 be 7e 2d b3 3f
       -1.0888797 -0.49334133 -0.2946978 1.3998258
000360 56 9e b2 bf 8a 15 f1 3e e7 90 22 bf 8f f1 88 3e
       -1.395457 0.47086746 -0.63502353 0.26746795
000370 04 a2 0c bf 06 13 1a 40 8c f3 69 3f 40 03 7c 3f
       -0.54934716 2.407411 0.9138725 0.9844246
000380 25 f5 83 3e 90 15 9d 3f 22 67 c1 bf dd e6 0b be
       0.25772968 1.2272205 -1.5109599 -0.13662286
000390 cb 9c 18 bf cf 40 e7 3f 31 80 64 bf 82 74 95 bf
       -0.5961425 1.8066653 -0.89258105 -1.167618
0003a0 21 46 41 3f 40 2a 00 be 90 0e b2 3e 9c 0f 97 be
       0.75497633 -0.12516117 0.34776735 -0.29504097
0003b0 ce be d9 3e b8 d9 9e bf ff 60 4a bf 99 7f ca 3e
       0.42528385 -1.2410192 -0.79054254 0.39550474
0003c0 b8 62 c6 be b9 23 ee 3e c2 47 9a 3e c5 6a f5 3f
       -0.3874719 0.4651163 0.30132872 1.9173208
0003d0 9b cd 1c 3f 0f 87 1b 3e 38 be 99 be 71 ca 19 bf
       0.6125123 0.1518824 -0.30027938 -0.60074526
0003e0 34 7f ff 3f a5 35 0d 3e 85 b9 d0 be e7 bc a6 3f
       1.9960694 0.13789995 -0.4076654 1.3026398
0003f0 77 22 01 bf 25 93 9b bd 35 ee d3 bf f9 eb bb be
       -0.50443214 -0.07596425 -1.655707 -0.3670347

embedding_layer.embedding_layers.C11.weight f4 [224, 4]
000000 7c d4 f0 3d 71 e2 fa bf e0 66 42 bf 81 c3 ce be
       0.11759278 -1.9600354 -0.75938225 -0.40383533
000010 c5 09 17 bc a9 2a b0 3f 70 fa 42 3e 02 28 bb 3f
       -0.009218638 1.3763019 0.19040847 1.4621584
000020 2b f5 bd 3f 24 5c 14 3e 6a a3 14 bf 99 ca a5 be
       1.4840444 0.14488274 -0.5806185 -0.32381132
000030 e5 c2 99 be 43 fd 45 3f 02 58 b3 3e a6 4f d5 3d
       -0.30031505 0.7733957 0.35028082 0.10415582
000040 c0 d3 05 3f 74 c5 00 3f 1b ff d2 be 90 1c 10 3f
       0.5227623 0.5030129 -0.41210255 0.5629358
000050 2c 51 55 bf 26 c4 8a bf 84 f4 7c bd 8e aa 35 be
       -0.83326983 -1.084111 -0.061756626 -0.17740843
000060 69 83 08 3d 73 a6 8c 3f 7c d8 e8 3e d5 6e b5 3f
       0.033328447 1.0988296 0.45477664 1.4174448
000070 09 8f a0 bf 2d 0e b8 bf 89 f3 11 bf 5e 1f 44 3f
       -1.2543651 -1.4379326 -0.5701223 0.7661036
000080 94 7f 50 40 68 2d 3e bf 82 5e 88 bf 5e 82 8c be
       3.2577868 -0.74288034 -1.0653841 -0.27443212
000090 7f 5c b3 3e 3b 7f da be 15 5e 34 bf 01 cb cf 3e
       0.35031506 -0.42675194 -0.7045606 0.40584567
0000a0 32 4d 10 be cd bd b2 3f 95 26 c1 3e c2 8e 4d bd
       -0.14091948 1.3964173 0.37724748 -0.050184973
0000b0 fd 8e 84 3e f6 47 92 bf 4a e8 d2 bf eb bc 9e 3e
       0.2589034 -1.1428211 -1.6477139 0.31003508
0000c0 75 37 04 3f a8 d6 2f 3f 54 ed 26 3f 59 fb 1a bf
       0.5164712 0.68686914 0.65205884 -0.60539776
0000d0 22 b2 48 3f b0 1c 73 bf 77 f7 6d 3e 5d 37 99 be
       0.7839681 -0.9496565 0.23238932 -0.2992505
0000e0 aa 6d 5e bf a1 56 10 40 61 1d ea be 94 e1 1c bf
       -0.86886084 2.2552874 -0.4572554 -0.61281705
0000f0 f7 52 52 3f 8c 4e aa 3f c6 e0 1a bd 5e 4f 9c 3e
       0.82157844 1.3305221 -0.037812017 0.30529302
000100 42 12 16 be 12 4e 07 40 2c 04 12 be 83 c3 8f 3f
       -0.14655402 2.11414 -0.14259404 1.123154
000110 69 0f d4 bd b9 46 c8 3f 41 da 98 3e b8 62 97 be
       -0.10354502 1.5646583 0.29854015 -0.29567504
000120 e3 73 61 3f 78 54 34 bf 6f ee 0f c0 b5 1a d2 bf
       0.88067454 -0.7044139 -2.2489278 -1.64144
000130 14 f4 d9 be c0 d1 dd bd cf 32 e6 be a9 be 8f bf
       -0.4256903 -0.10831022 -0.4496064 -1.123006
000140 74 f8 0d 3d 65 a5 9b bd 4d ff a3 bf b5 ba 6f 3e
       0.03466077 -0.07599906 -1.2812287 0.23411067
000150 e2 08 a2 be bf 9e dc bd 84 51 1d 3e 73 cf 1a bf
       -0.31647402 -0.10772466 0.15363127 -0.6047279
000160 20 e9 93 3d 77 f0 39 bf a8 d4 55 3e b0 d0 46 3f
       0.072221994 -0.72632545 0.20881903 0.7766218
000170 8a 2c d0 bf 6b ab f9 3e 10 f6 cb 3e b1 80 51 3e
       -1.6263592 0.48763594 0.39836168 0.20459248
000180 21 c5 b1 3f 32 7c 21 bf b7 a1 df 3e a2 72 53 3f
       1.3888284 -0.6308013 0.43678066 0.8259679
000190 60 f2 d1 3e dc 51 2d 40 3a f9 2f bf 11 b6 ca be
       0.4100523 2.7081213 -0.68739665 -0.3959203
0001a0 3f f9 f1 3f 6a 77 e0 be d0 1d a4 3e ff 62 df be
       1.8904189 -0.43841106 0.32053995 -0.43630216
0001b0 67 46 bd be ae 29 87 3f 52 c4 95 3f 88 69 12 bf
       -0.36967775 1.0559595 1.1700537 -0.5719228
0001c0 62 fb cb bf a5 0a 50 bf 94 3d 24 bf cf 17 c4 3f
       -1.5936091 -0.8126624 -0.6415646 1.5319766
0001d0 fb d9 b4 bd 56 75 59 3f 43 9d 93 3e d3 6d bf bf
       -0.08830639 0.84944665 0.2883092 -1.4955391
0001e0 8f de eb bf 41 c6 a3 bf db 07 c0 bf f3 b7 76 3f
       -1.8427294 -1.2794877 -1.5002397 0.96374434
0001f0 b1 2c cf 3f 46 c5 0f bd 98 81 35 bf a8 b4 1f 3f
       1.6185514 -0.035100244 -0.7090087 0.62385035
000200 c0 3d c4 3e 33 15 47 3f f9 44 1c c0 fe 8b 8e 3e
       0.38328362 0.7776672 -2.4417098 0.2784118
000210 eb 2d 31 3e 7e d4 eb bd cf 61 7c 3f 4a b6 92 bf
       0.17302673 -0.11515139 0.98586744 -1.146188
000220 8f af dc 3f 44 a2 0d c0 86 b9 84 bf 28 71 16 3f
       1.7241076 -2.213029 -1.0369117 0.5876641
000230 68 29 41 bf 85 d5 37 bd e4 ad 25 3f 8b 22 63 bf
       -0.75453806 -0.044881362 0.6471846 -0.88724583
000240 70 dc 1e 3f dc e6 b7 be 17 7d f8 3f 8b 74 2a bf
       0.6205511 -0.3591832 1.9413174 -0.6658408
000250 9b a5 18 bf 15 73 41 bd fb 25 8f 3f 48 69 e6 3d
       -0.59627694 -0.04722889 1.1183466 0.112505496
000260 40 2b e3 3e 29 84 16 40 a8 50 f0 3f 13 ac 57 3e
       0.44368935 2.3518164 1.8774614 0.21061735
000270 57 0a bb 3f 2e 19 de be 40 c4 d5 3f 13 2f a9 bf
       1.461253 -0.43378586 1.6700516 -1.3217491
000280 2a 9b 99 3d f0 2e 06 bf b1 06 04 40 bc 2d 88 bf
       0.07500298 -0.5241537 2.0629084 -1.0638957
000290 67 58 d3 be 2f 6f da 3f 12 23 b4 3e 8c ce 55 3f
       -0.41278383 1.706518 0.35183007 0.8351829
0002a0 86 bc f5 3f e0 da 2f bf 41 69 2a 3f 21 a6 da 3d
       1.9198158 -0.6869335 0.66566855 0.10676218
0002b0 6a 17 28 bf e2 00 8d bf cd 09 ae bf 04 f3 b4 be
       -0.6566073 -1.1015894 -1.3596741 -0.35341656
0002c0 11 ca bf bf 41 f1 d6 3f a5 88 b5 be 5d 4e 7c be
       -1.4983541 1.6792375 -0.35455814 -0.24639268
0002d0 2e 1d 8c 3f 79 18 91 be c6 24 20 bf ba 05 b2 3f
       1.0946405 -0.28338984 -0.6255611 1.3907998
0002e0 ea 3e bf bf c2 55 45 3f dd 1f 0c be ff 00 1d 3f
       -1.4941075 0.7708398 -0.1368403 0.61329645
0002f0 e3 3f 82 3f 45 5b 9b bf d7 85 90 bf 9c ec 24 bd
       1.0175747 -1.2137228 -1.1290845 -0.04026471
000300 c5 6a d5 3f 44 57 b3 3d 64 46 cd 3f 60 24 96 3f
       1.6673208 0.08756879 1.6037107 1.1729851
000310 bf a0 29 bf 0b 57 89 bf ad 49 05 40 7c 47 91 3f
       -0.66260904 -1.0729688 2.0826218 1.134994
000320 d8 7c b6 3e 3d e1 6a be 87 c6 07 be d6 1b b8 be
       0.35642123 -0.22937484 -0.13259326 -0.35958737
000330 45 55 45 bc 35 b8 fe 3e 7a 4d 6d bf 6b ae 30 40
       -0.012044256 0.49749914 -0.92696345 2.7606456
000340 fc 47 50 bf 86 c5 9a bf 0f e5 00 c0 58 86 7e be
       -0.8135984 -1.2091529 -2.0139806 -0.24855936
000350 8c 5a 8b 3e a8 1d 12 be 9f 29 a2 3f 0e 02 af 3f
       0.2721752 -0.14269125 1.2668952 1.3672502
000360 43 be c2 be 19 79 e0 3d 63 a9 f1 3f a0 bf 98 3d
       -0.38035783 0.109605975 1.8879818 0.074584246
000370 74 14 f9 be 6c ba 89 bf 02 6a ac be c8 1b dd be
       -0.48648417 -1.0760016 -0.33674628 -0.43185258
000380 9a 34 c9 3d 4b ca e9 bf b1 c3 31 3f 4d cc 64 3f
       0.09824486 -1.826486 0.69439226 0.8937424
000390 a3 d4 b6 bf 3a 97 bd bf c7 0f de bf 9f 74 a8 bf
       -1.4283642 -1.4811776 -1.7348565 -1.316059
0003a0 b8 4d b3 3f 8d 04 22 c0 0f c6 37 3f de b9 a6 3f
       1.4008093 -2.5315278 0.7178659 1.3025472
0003b0 27 60 8e bf 55 fa 31 bf 97 88 cf bf 75 1c ac 3f
       -1.1123093 -0.695226 -1.6213559 1.3446184
0003c0 6a 07 87 be 93 4c 68 be f9 46 0c 3f 9f 2c e3 3e
       -0.26372844 -0.22685461 0.54795796 0.4436998
0003d0 74 45 33 3e db d8 9a 3e 1b 8e 05 3e 5b 9f 20 3f
       0.17506963 0.30243573 0.1304249 0.6274316
0003e0 be e9 cd bd a6 c5 85 bf fb c0 ab 3f 68 18 80 bf
       -0.100543484 -1.0450943 1.3418268 -1.0007448
0003f0 4c 17 9a 3f a0 cb fa bd 0e 17 d4 bf 26 89 8c 3e
       1.203836 -0.1224587 -1.6569536 0.27448386
